results/raw_openmiir_sce_simpleconv_dotprod/simple_nn_fold_2_weights.npy (npy, 844400 bytes, 1 tensors)

array f4 [5, 3518, 12]
000000 9d 29 1d 3d bb 2b 31 3d 6d 3a ef bc 1d af d0 3d
       0.038369764 0.043254595 -0.029202664 0.1018965
000010 42 a7 91 bc 61 cf 88 3c 3c 5c 9d bd 21 a6 07 bd
       -0.01777995 0.016700448 -0.07683608 -0.033117417
000020 70 6c 0c 3d 48 d2 eb 3c d9 45 26 bd 55 76 98 bd
       0.0342831 0.028786793 -0.040593956 -0.07444445
000030 ad 62 56 3d 87 3b 14 3d 97 b6 04 bd a0 c5 f2 3d
       0.0523402 0.036189582 -0.032400694 0.118541
000040 03 0b 07 bc 2f 92 ce b9 8f 9e ad bd fb ba 63 bd
       -0.0082423715 -0.00039400297 -0.08477508 -0.05559824
000050 f5 59 50 3d 6f a2 e0 3c e3 5d 1a bd 92 3c 97 bd
       0.05086704 0.027421204 -0.037687194 -0.073846
000060 7f 6b 0b 3d cf be 0e 3c ed bb 9f bc fb 0d d6 3d
       0.034038063 0.0087124845 -0.01949879 0.10451885
000070 bd 83 2d 3c 36 9d ca 3c 7a a6 85 bd f0 88 20 bd
       0.010590491 0.024733167 -0.065258935 -0.039193094
000080 8d fe 1b 3d b1 23 c2 3c 84 73 fe bb 1a dd 2a bd
       0.038084555 0.02369866 -0.0077652354 -0.041714765
000090 80 0d 53 3d a5 8b fe bb 3a d6 3f bd bb 2f dc 3d
       0.051526546 -0.007768112 -0.04683516 0.10751291
0000a0 79 ba 83 3c 7d 3e 30 3c 76 98 8d bd 08 b1 40 bd
       0.016080128 0.010757086 -0.06913845 -0.04704383
0000b0 3b 60 83 3c 58 ef be bb 5f c6 5a bc 83 bc 3e bd
       0.016037097 -0.005826872 -0.013352959 -0.046566498
0000c0 c5 0d 5a 3d 00 4c 42 3c d1 bf 0c bd 1b 92 f6 3d
       0.053235788 0.01185894 -0.034362618 0.12039586
0000d0 12 b6 40 3c 10 6b 99 3c 22 58 3e bd 8a cc 2f bd
       0.011762159 0.01872781 -0.04647077 -0.042919673
0000e0 6d 8f 30 3d 70 98 02 3c a0 7c ce ba ca b4 80 bd
       0.04310553 0.007970914 -0.0015753694 -0.06284483
0000f0 29 e4 b5 3d 97 e5 80 bc 80 2f 04 bd ef 81 ee 3d
       0.08881409 -0.015734477 -0.032271862 0.116458766
000100 23 d4 46 3c 10 bb 83 3c 75 91 68 bd 79 b4 54 bd
       0.012135538 0.01608041 -0.056779344 -0.051929925
000110 05 6b 46 3c ce 77 85 bc 90 d9 74 bc 8c 14 62 bd
       0.012110476 -0.016292479 -0.014944449 -0.055195376
000120 b1 f7 98 3d 10 cf 44 bc 46 e3 46 bd c0 16 cd 3d
       0.074691184 -0.012012258 -0.04855659 0.10014105
000130 18 2a 42 3c 97 3b 86 3c 02 da 2f bd cd fd 29 bd
       0.011850856 0.016385837 -0.042932518 -0.04150181
000140 4e e1 3f 3b 10 57 85 bd 87 10 7f 3c c8 09 2f bd
       0.002927858 -0.065107465 0.015567905 -0.042733938
000150 01 a7 78 3d 95 1e b4 bb 1f 45 4d bd 0b f1 c7 3d
       0.060706142 -0.0054968097 -0.050114747 0.09762772
000160 41 8d c6 3b bb 47 5a 3d c5 c5 e8 bc a6 fc c2 bc
       0.0060593192 0.053291064 -0.028414616 -0.023802113
000170 a0 41 90 3b c9 52 a2 bd 5e 44 97 3c cf 26 25 bd
       0.0044023544 -0.07925946 0.018465217 -0.040320214
000180 da 65 6e 3d dd 77 5e bc ba d2 4e bd e5 5f ce 3d
       0.058202602 -0.013578382 -0.050493933 0.10076884
000190 fa 12 4f 3c 97 e4 5d 3d b1 bd a8 bc 7a 3f f2 bc
       0.012638802 0.05417308 -0.020598264 -0.029571284
0001a0 69 d6 05 3c 95 49 c4 bd 5e 70 ea 3b 08 17 3d bd
       0.008168795 -0.09584347 0.0071545085 -0.046164542
0001b0 3f 06 33 3d 5f 22 ad bc 05 c0 25 bd 78 21 9c 3d
       0.04370713 -0.021134553 -0.040466327 0.07623571
0001c0 77 5d ab 3b 5f 34 6d 3d 3d a7 fb bc f2 a6 bb 3c
       0.0052296477 0.057911273 -0.030719394 0.022906754
0001d0 a4 cb 85 b8 e0 e1 bc bd 92 2f 12 3c 9e bf bc bc
       -6.379865e-05 -0.0922277 0.008922474 -0.023040589
0001e0 fc 30 31 3d cf c1 08 b8 c3 db 8b bd 59 2b 9e 3d
       0.043259606 -3.2605425e-05 -0.068290256 0.07723112
0001f0 f0 7b dc 3b 46 53 8d 3d cd 39 ae bc a9 04 34 3d
       0.0067286417 0.06900649 -0.021267796 0.043949757
000200 61 bf 19 bc e4 82 e6 bd 49 16 99 3c 7d ee 1a bd
       -0.009384007 -0.11255434 0.018687384 -0.037825096
000210 c5 c6 07 3d c2 0b 58 3c 68 65 89 bd 5f de a6 3d
       0.033148546 0.013186397 -0.06708795 0.08147883
000220 a5 f3 d8 bb 9d 0e 79 3d 0c 28 7c bd 17 3b 35 3d
       -0.0066208416 0.060804952 -0.06156163 0.044245806
000230 f7 d8 cc 3b df 9f eb bd c9 ae 47 3d f4 2c 1b bd
       0.00625145 -0.11505102 0.048750672 -0.037884668
000240 a5 5c 6f 3d f0 09 f5 3c 26 72 95 bd b5 d2 a4 3d
       0.058437962 0.029911965 -0.07297163 0.08048002
000250 8c 11 67 3b 23 e6 32 3d dd 69 57 bd 4a d4 83 3d
       0.0035258261 0.043676507 -0.052591193 0.06436975
000260 08 e1 09 bd 59 2c d5 bd 49 43 1d 3d 2f 72 49 bd
       -0.033661872 -0.10408849 0.038394246 -0.04918116
000270 03 cf 39 3d 0d 37 39 3d 5b e9 8b bd 79 0c 7e 3d
       0.045363437 0.045218516 -0.068316184 0.062023614
000280 26 f0 4a 3c 14 fa 84 3d 8e d5 98 bd 13 db c2 3d
       0.012386357 0.06493011 -0.07462607 0.09514441
000290 ff 1b 13 bd a0 a3 b2 bd ee 50 3c 3d b9 a1 4b bd
       -0.03591537 -0.08722615 0.045975618 -0.049714778
0002a0 c1 a4 f9 3c de a5 41 3d 2a 34 92 bd 5d 95 95 3d
       0.030474069 0.047277324 -0.07138856 0.073038794
0002b0 b5 61 eb 3a 73 96 5a 3d 20 60 b9 bd fb c6 c3 3d
       0.0017958196 0.053366136 -0.090515375 0.09559437
0002c0 47 30 b4 bc a2 c4 ba bd 14 22 fe 3c 37 fe cc bc
       -0.021995677 -0.09119536 0.03102211 -0.025023563
0002d0 83 f4 19 3d a9 41 36 3d 74 44 53 bd 9a 83 8c 3d
       0.0375867 0.044496212 -0.051578954 0.068610385
0002e0 76 4d 0c 3a df 52 2c 3d 60 26 da bd 8a 74 cc 3d
       0.0005352119 0.04207122 -0.10651851 0.099831656
0002f0 48 c2 12 bd bb ce cd bd 89 14 5f 3d 1a ba 3d bd
       -0.035829812 -0.10049196 0.054462943 -0.04632006
000300 a7 74 41 3d 84 1f b2 3d e2 a2 76 bd 37 d8 9a 3d
       0.04723039 0.086974174 -0.06021393 0.07560771
000310 b4 b0 80 3c f7 c9 c3 3c 3f af ec bd d2 58 c3 3d
       0.015709259 0.023900015 -0.11556863 0.095384255
000320 ba 54 64 bd f7 d1 bc bd db 2b b8 3c 7a 1b 32 bd
       -0.055744864 -0.09219735 0.02248185 -0.043483235
000330 ca 1d 66 3d d3 db c9 3d c8 1a ee bc 33 b1 c5 3d
       0.056180753 0.09856381 -0.029065505 0.09652939
000340 b2 27 d3 bb 6c 7b 2f 3d 2b 4c d5 bd 61 da 06 3e
       -0.006443941 0.042842314 -0.104149185 0.13169242
000350 bf 63 83 bd 8b 3e c6 bd bc f5 d3 3c 50 a6 f5 bc
       -0.064155094 -0.09679898 0.025874011 -0.02998653
000360 fe cb 6a 3d 59 47 ae 3d 1d 41 e1 bc 35 53 8a 3d
       0.05732345 0.08509702 -0.027496869 0.06754152
000370 83 bc 1e 3b 06 aa 21 3c 19 a4 d8 bd b0 c8 f1 3d
       0.0024221248 0.009867197 -0.10578174 0.11805856
000380 c4 5a 22 bd 62 91 c4 bd 75 75 30 3d 6d dc 3e bd
       -0.039637342 -0.09598042 0.043080766 -0.046596933
000390 63 82 67 3d ce 46 dc 3d a9 14 20 bd 74 c5 b8 3d
       0.05652083 0.107556924 -0.039082203 0.09022036
0003a0 10 04 06 3b 85 63 66 3c f9 f6 08 be 9a 0d e1 3d
       0.0020449199 0.014061813 -0.13375463 0.109889224
0003b0 1d 88 6c bd 9e 1a ae bd 86 45 3c 3d e5 9f 07 bd
       -0.057746995 -0.085011706 0.04596474 -0.03311147
0003c0 2a 6e 6a 3d 97 d2 e9 3d b5 a7 e0 bc 7c 97 ac 3d
       0.057233967 0.1141712 -0.027423719 0.08427331
0003d0 fa b6 c0 3c f5 e7 95 3b 57 49 06 be 1a 46 e2 3d
       0.02352475 0.0045747706 -0.13113914 0.11048527
0003e0 11 af 35 bd 29 00 af bd 11 90 09 3d e6 a7 38 bd
       -0.04435641 -0.085449524 0.033584658 -0.045081995
0003f0 59 35 85 3d 19 f4 cb 3d b0 af 15 bd 65 1a 85 3d
       0.06504316 0.09958667 -0.0365445 0.06499175
