results/raw_openmiir_sce_simpleconv_dotprod/simple_nn_fold_8_weights.npy (npy, 844400 bytes, 1 tensors)

array f4 [5, 3518, 12]
000000 f4 ff 1a 3e 1b e7 c6 3d 34 a3 be 3d b2 c1 4a 3e
       0.15136701 0.097120486 0.09308472 0.19800451
000010 3c 4c 04 be 1c 7d 27 bd ee 8c 71 be bb af e2 bd
       -0.12919706 -0.040890798 -0.23588917 -0.11068674
000020 10 61 17 b8 4b f5 9e 3e 9d 1c 24 be 52 47 0a 3d
       -3.6091602e-05 0.3104652 -0.1602654 0.033759423
000030 de 40 fb 3d cf 5b b2 3d df 14 d2 3d 42 3d 65 3e
       0.12268232 0.08708917 0.10257887 0.22386649
000040 e1 bd 0e be f6 fa 07 bd ef 5f 6e be 2f 48 f7 bd
       -0.1393962 -0.03319832 -0.23278783 -0.12074315
000050 81 f4 81 bd 70 fe 9a 3e 2d 38 34 be 19 16 77 3d
       -0.063454635 0.30272245 -0.17599554 0.06032381
000060 25 73 06 3e ed 2b 70 3d f2 38 d3 3d c0 f0 79 3e
       0.13129862 0.05863564 0.10313596 0.24408245
000070 18 d2 19 be 17 57 15 bd 27 c1 39 be 46 b0 04 be
       -0.1502155 -0.03646001 -0.18140088 -0.12957868
000080 17 c8 e8 bd 3f e8 92 3e 32 c0 1c be a6 73 55 3d
       -0.11366289 0.28692815 -0.15307692 0.052112244
000090 bc ca ff 3d d4 24 45 3d 0f 68 c3 3d d6 b0 7e 3e
       0.124898404 0.048130825 0.09541332 0.24872145
0000a0 52 a8 05 be 9c 4a 3d bd 76 f7 1d be 0a 6a 15 be
       -0.1305249 -0.04621373 -0.1542643 -0.14591232
0000b0 1b e9 f6 bd 8e a7 91 3e 27 6f 08 be a6 d5 63 3d
       -0.1205618 0.28448147 -0.13323651 0.055623673
0000c0 14 d5 12 3e d6 31 74 3c bf 7e 86 3d b2 d1 7f 3e
       0.14339095 0.01490446 0.06567144 0.24982336
0000d0 63 47 11 be 2a 07 e2 bb 7a 2d dc bd 2d d8 fd bd
       -0.14187388 -0.0068978267 -0.107508615 -0.12394748
0000e0 f1 d1 2a be c9 80 81 3e 4a a1 e6 bd 5f 67 fa 3c
       -0.16681649 0.25293568 -0.11261232 0.03056687
0000f0 1b a6 dd 3d c5 53 89 bc 93 cb 38 3d 63 73 83 3e
       0.10822698 -0.016763577 0.04511602 0.2567397
000100 12 73 ea bd ec a5 fd 3c ac 36 a0 bd 3b f3 f5 bd
       -0.11447729 0.030962907 -0.07822928 -0.12009283
000110 3f da 37 be a9 77 5b 3e 9a cc 62 bd 78 f5 2e 3d
       -0.17954348 0.21432365 -0.055370905 0.042714566
000120 ae 1f c2 3d 51 92 de bc 5e f9 1f 3d 5a b4 61 3e
       0.09478699 -0.027169378 0.039056174 0.22041455
000130 8f c9 ef bd b8 02 8e 3d 45 8f 78 bd 67 f8 ec bd
       -0.11708366 0.06934112 -0.060683507 -0.115708165
000140 a8 c3 3d be ca 06 42 3e ae 7a 88 bc 27 4f e0 3c
       -0.18531668 0.18947902 -0.01666006 0.027381493
000150 bc 9f 9f 3d 0b ea 84 bd 61 22 9c bc 52 4f 3c 3e
       0.07794139 -0.06489953 -0.019059362 0.18389633
000160 20 22 a8 bd 1f 6b ec 3d 75 b0 53 bd 25 a1 aa bd
       -0.08209634 0.11543869 -0.051681954 -0.08331517
000170 a3 4d 39 be 6c a6 07 3e 9f dc d1 3c d4 98 7c bc
       -0.18096022 0.13247079 0.025617896 -0.015417296
000180 4d 86 7e 3d e0 c3 9c bd f4 ae 97 bd 6a 37 1f 3e
       0.062139798 -0.07654548 -0.074064165 0.15548483
000190 63 ce 02 bd 6d 4a 23 3e d3 65 a9 bd 8a 83 f2 bc
       -0.031935107 0.1594636 -0.082713746 -0.029603738
0001a0 c4 2b 3b be 79 a4 76 3d 54 2a b4 3d 15 e6 ee bc
       -0.18278414 0.060215447 0.08797136 -0.029162446
0001b0 94 52 c0 3a 8a d4 b9 bd e8 89 e6 bd b0 ac 1c 3e
       0.0014673048 -0.09073742 -0.11256772 0.1530025
0001c0 c8 ac 76 bc 97 4b 5e 3e e2 c9 bf bd 19 8d 9e 3b
       -0.015055843 0.21708523 -0.09364678 0.0048385975
0001d0 fa 6c 2c be 1b 1f 18 bc f3 f9 da 3d 64 16 01 bd
       -0.16838446 -0.00928476 0.10692205 -0.031515494
0001e0 a4 2d e6 bc 56 1f b7 bd 90 47 1c be 90 3d e9 3d
       -0.028097935 -0.08941524 -0.15261674 0.11388695
0001f0 98 33 d0 3c 45 31 6b 3e a9 40 22 be 10 ba a5 3d
       0.025415227 0.22968014 -0.15844978 0.08092129
000200 ff 73 14 be 18 7d 26 bd ed a6 01 3e fe 56 2d bd
       -0.14497374 -0.040646642 0.12661333 -0.04231929
000210 5d 72 10 bd e0 b3 8f bd 74 d5 33 be 9a 62 bb 3d
       -0.035265315 -0.0701673 -0.17561895 0.09149666
000220 6b a6 a9 3d 3c 07 82 3e 54 2f 47 be 29 f0 ed 3d
       0.08283695 0.25396144 -0.19451648 0.116180725
000230 72 15 10 be 8f 74 83 bd a4 d5 10 3e 2a 50 58 bd
       -0.1407068 -0.06418716 0.14143997 -0.052810825
000240 e7 9f 63 bd e3 a1 45 bd df 8c 5c be 3c 81 d4 3d
       -0.055572417 -0.04825009 -0.21538113 0.10376212
000250 18 95 0b 3e ca 1e 8e 3e e1 d2 5d be e5 93 2f 3e
       0.13631094 0.27757865 -0.21662475 0.17146261
000260 a5 02 09 be 28 1d d7 bd ad 01 1b 3e 83 23 63 bd
       -0.13379915 -0.10503608 0.15137358 -0.05545379
000270 c7 b1 94 bd 7e 13 39 bd 3c 70 49 be 79 2c de 3d
       -0.07260471 -0.045184605 -0.1967172 0.10848326
000280 db 69 30 3e ab e4 8e 3e 5c ce 89 be ea 15 64 3e
       0.1722788 0.27908835 -0.26915252 0.22273985
000290 fc 8d 07 be 2e 7e f5 bd a8 88 02 3e da b2 95 bd
       -0.13237756 -0.119869575 0.12747443 -0.07309504
0002a0 5a d2 c6 bd 9a 2f 8b 3b 25 43 59 be 3b 65 ce 3d
       -0.0970809 0.004247618 -0.2121702 0.10077902
0002b0 39 68 6a 3e a4 80 86 3e a9 0f 95 be d2 5c 81 3e
       0.2289132 0.2627002 -0.2911351 0.2526613
0002c0 05 cf 0c be 4e 1a ca bd e9 f8 01 3e 6b a9 80 bd
       -0.13750847 -0.098682985 0.12692608 -0.06282314
0002d0 e9 10 c0 bd e1 2c 76 3d 6d 5a 43 be 4f c1 00 3e
       -0.09378225 0.060101394 -0.19077463 0.12573741
0002e0 84 2d 73 3e e9 11 81 3e 6b 23 9a be a2 3e 88 3e
       0.23747832 0.25208977 -0.30105147 0.26610285
0002f0 8f 89 03 be 3f 09 05 be e3 88 c2 3d 5d 7e ad bd
       -0.12845443 -0.12991808 0.09498765 -0.084713675
000300 6c a9 9c bd 03 05 c5 3d c9 e5 40 be 40 7a 21 3e
       -0.07649502 0.096200965 -0.18837656 0.15769291
000310 09 37 8c 3e da 3f 78 3e b4 08 9b be 0d 64 9e 3e
       0.27385738 0.24243107 -0.30280077 0.30935708
000320 b9 5f 0d be 07 79 d2 bd aa 8c be 3d 35 60 c9 bd
       -0.13806047 -0.102769904 0.09304173 -0.09832803
000330 96 18 b6 bd d8 62 0a 3e 42 8b 2b be e4 e6 21 3e
       -0.08891408 0.13514268 -0.16752341 0.15810734
000340 1e 1a 84 3e 6b 22 5c 3e ca cb a1 be b3 f0 a5 3e
       0.25801176 0.21497504 -0.3160079 0.324102
000350 9a 14 0d be dd 6d c8 bd 9b 47 7a 3d 70 31 f3 bd
       -0.1377739 -0.0978658 0.061103445 -0.11874664
000360 71 24 a1 bd fa 14 2f 3e 4c 3b 16 be 06 b7 37 3e
       -0.07868279 0.17097846 -0.14671057 0.17940912
000370 b6 6b 84 3e ee 5a 5e 3e 30 14 a7 be 47 39 9a 3e
       0.25863427 0.21714374 -0.3263259 0.30121824
000380 03 92 10 be ce 6f ce bd f5 2e 21 3d fc cf 01 be
       -0.14118199 -0.10079919 0.039351422 -0.12676996
000390 3c 46 46 bd 85 b1 2c 3e 9a 42 b8 bd b5 c1 3f 3e
       -0.048406824 0.16864593 -0.08997078 0.18726237
0003a0 f1 bb 60 3e e0 d3 35 3e a1 2c ab be b3 7e a2 3e
       0.21946694 0.17756605 -0.33432487 0.3173729
0003b0 56 bb 1c be 83 a6 e4 bd 83 f1 92 bb 65 e9 14 be
       -0.15305838 -0.11164572 -0.004484357 -0.14542158
0003c0 33 85 c2 bc cf 3f 34 3e a8 a8 33 bd 3c 77 3a 3e
       -0.023745155 0.17602466 -0.043862015 0.18209547
0003d0 11 99 52 3e 67 7b 21 3e 0f b4 9b be fc 73 95 3e
       0.20566203 0.1576973 -0.3041081 0.29190052
0003e0 22 e5 25 be 30 ca bf bd 47 d9 2f bd 70 29 13 be
       -0.16200688 -0.09364736 -0.04293182 -0.14371276
0003f0 3e 0e 88 bc 2e a9 36 3e ad 14 f1 bb 45 01 17 3e
       -0.016608354 0.17837974 -0.007357201 0.14746578
