results/raw_openmiir_sce_simpleconv_dotprod/simple_nn_fold_6_weights.npy (npy, 844400 bytes, 1 tensors)

array f4 [5, 3518, 12]
000000 de 04 30 3e 46 83 97 bd 2d 0e 89 bc 7e af 9a 3e
       0.17189357 -0.07398085 -0.016730392 0.30212015
000010 18 c8 dd bd 64 0f 27 bd 74 57 46 be d3 06 44 be
       -0.108291805 -0.040786162 -0.19369298 -0.19143228
000020 88 44 97 3c 5e 2d 99 3e 84 4d 7d be 8e 89 1e 3d
       0.018465295 0.29917425 -0.24736601 0.0387054
000030 17 c9 2c 3e 2f fe be bd 4b f8 92 bc 5d 76 b5 3e
       0.16873585 -0.093258254 -0.017940661 0.35441867
000040 bb 38 fa bd 9e be 94 bd 72 99 12 be b2 ae 4d be
       -0.12217852 -0.0726292 -0.14316347 -0.20086172
000050 17 41 87 bb 7c 95 8b 3e 21 92 7a be a0 45 1b 3d
       -0.0041276324 0.27262485 -0.24469806 0.037908196
000060 d7 95 2d 3e a2 62 f9 bd 01 d8 72 ba b0 c7 b8 3e
       0.1695169 -0.12177016 -0.00092637545 0.3608985
000070 3b b3 f2 bd 39 94 86 bd 8c 63 07 be f1 a5 5a be
       -0.11850592 -0.0657124 -0.13221568 -0.21352364
000080 aa 90 08 bd bc 0d 8e 3e 71 41 53 be 1f 57 07 3d
       -0.033341087 0.27744853 -0.20630433 0.03304207
000090 ca 6c 3d 3e f2 ea ec bd db d6 26 bc 9a 18 ad 3e
       0.18498531 -0.1156825 -0.0101830615 0.33807832
0000a0 c2 ef 01 be a0 c6 7e bd 0a 5d 98 bd 5a 71 50 be
       -0.12689117 -0.062201142 -0.07439621 -0.2035574
0000b0 59 73 8a bd 34 7e 76 3e ec af 3c be fa 60 58 ba
       -0.06760282 0.2407158 -0.18426484 -0.0008254197
0000c0 93 1f 33 3e 79 1a cd bd 47 40 29 3b 4a 00 b9 3e
       0.17492513 -0.10014815 0.0025825666 0.36133033
0000d0 c6 9b f5 bd a8 01 a3 bc c0 f6 55 bd ac 0e 2d be
       -0.11992602 -0.01989825 -0.052237272 -0.16900128
0000e0 20 67 f1 bd 0f c1 3d 3e 8d fb 03 be ad 68 25 3b
       -0.11787248 0.18530677 -0.12888928 0.0025239394
0000f0 b9 5f 37 3e 5a e0 fd bd 7c 6d 33 3c 90 a6 b3 3e
       0.17907609 -0.12396307 0.010951396 0.35088015
000100 d9 a6 cf bd ca fb 6c bc a7 59 85 bd 97 21 1d be
       -0.101392455 -0.014464328 -0.065112405 -0.15344845
000110 da ba e0 bd f4 ea d3 3d 24 11 9b bd 82 15 3e b9
       -0.10973139 0.10347548 -0.07571629 -0.00018127824
000120 27 6c 1f 3e be d5 e5 bd 27 5a 51 3a 0f b7 a8 3e
       0.155686 -0.11222409 0.0007986151 0.32952163
000130 7e 06 ed bd 46 45 c9 3c 98 c1 3a bd bd 77 d2 bd
       -0.11573504 0.024569165 -0.04559478 -0.102767445
000140 83 88 0c be fc 2d 5a 3d 91 11 2b bd 33 4a f1 bc
       -0.1372395 0.05326651 -0.0417648 -0.029454326
000150 e5 5c 23 3e 56 3d 98 bd 29 62 e1 bb 52 e1 94 3e
       0.15953405 -0.07433574 -0.0068781567 0.29078156
000160 68 cd b3 bd d7 86 61 3d 31 91 22 bd e6 e3 95 bd
       -0.087794125 0.055060234 -0.039689247 -0.07318859
000170 01 2c 0c be 52 80 05 bc f4 bc 2c 3d 01 8b 38 bd
       -0.13688661 -0.00814827 0.042172387 -0.04505444
000180 a9 a4 fc 3d fd 99 a7 bd 52 7b 80 3c 8f 4a 7c 3e
       0.12336094 -0.08183668 0.015683804 0.24637817
000190 19 bc 73 bd 53 59 e7 3d d3 34 bd bd 24 eb 97 bc
       -0.059505556 0.11296334 -0.09238591 -0.018544741
0001a0 f1 b3 1d be b9 29 80 bd fa 21 a4 3d b9 18 77 bd
       -0.15400673 -0.06257958 0.08014293 -0.06032631
0001b0 30 29 c3 3d 24 88 50 bd dc 1c ab 3c 01 55 7a 3e
       0.0952934 -0.050911084 0.020887785 0.24446489
0001c0 00 ef 50 bd a1 db 00 3e 5c 46 c4 bd f5 cc 81 3d
       -0.05100918 0.12583782 -0.095837325 0.063379206
0001d0 6f 7a 33 be ae 2a e0 bd 92 bb d5 3d 4a 38 6a bd
       -0.17527173 -0.109456405 0.10436167 -0.057182588
0001e0 14 15 9b 3d 58 1c 32 bd b3 6b 19 bc dc 0d 48 3e
       0.0757238 -0.043484062 -0.009364056 0.19536537
0001f0 b9 b8 9b bc ef d3 1c 3e 51 eb 16 be 4e 6b cc 3d
       -0.019008981 0.15315221 -0.14738204 0.09981404
000200 e0 14 1a be 03 e8 21 be 75 fc 1e 3e d8 14 8c bd
       -0.15047026 -0.15811162 0.15525992 -0.06839913
000210 bd 9c 6b 3d 01 f2 6e bc e3 e3 b2 3b 11 45 32 3e
       0.057522524 -0.014584065 0.005459295 0.17409159
000220 24 12 f2 ba 75 02 2b 3e a6 f6 3f be af db 13 3e
       -0.0018468541 0.16700156 -0.18746433 0.14439271
000230 2d 69 3a be 69 e8 2a be 47 4c 32 3e 11 a2 ae bd
       -0.18204184 -0.1669022 0.1741191 -0.085270055
000240 fb 63 b8 3c 7e 93 c6 bc a5 4e aa bc 89 b8 21 3e
       0.022508612 -0.024240252 -0.020789454 0.15793051
000250 d5 27 4c 3c 3d 15 36 3e e0 cc 75 be 0f de 3b 3e
       0.012460669 0.1778154 -0.24003935 0.18346427
000260 ec 8b 36 be 09 c9 3a be b2 7f 4a 3e 4e 37 c0 bd
       -0.17826813 -0.18240751 0.19775274 -0.093855485
000270 1d 38 c6 3b 02 de a6 bb 57 70 b4 bc 83 9b 27 3e
       0.0060491697 -0.0050923834 -0.022026224 0.16367917
000280 0c b1 e7 3c 1f 9d 52 3e 78 ab 89 be 62 ad 68 3e
       0.028282665 0.2056775 -0.26888633 0.2272239
000290 e0 a8 1c be c2 84 32 be 94 33 57 3e 3b ce ae bd
       -0.15298796 -0.17433456 0.21015769 -0.08535429
0002a0 0c 61 75 bc 76 a3 11 3d 80 b8 03 bd 77 42 37 3e
       -0.014976751 0.03555628 -0.032158375 0.17896448
0002b0 06 3c 37 3d bf 13 39 3e 88 25 94 be a2 27 6a 3e
       0.044734977 0.18073939 -0.28934884 0.22866681
0002c0 54 94 26 be c3 03 48 be 6b 6a 53 3e 41 f8 c6 bd
       -0.1626752 -0.19532685 0.20646064 -0.097153194
0002d0 a3 c6 b9 bc 80 8b 37 3d e1 d3 70 bc 79 4c 4c 3e
       -0.022677725 0.044810772 -0.014698953 0.19951047
0002e0 cc 68 62 3d b4 16 43 3e c9 ab 97 be 33 eb 87 3e
       0.055275723 0.1905163 -0.2962325 0.2654663
0002f0 85 83 33 be e7 24 36 be c8 8a 64 3e 49 14 8f bd
       -0.1753064 -0.17787515 0.22318566 -0.06986291
000300 48 4c 98 bc 19 66 23 3d 18 41 10 bd b0 65 54 3e
       -0.018591061 0.03989229 -0.03521833 0.20741916
000310 09 6d 38 3d 81 d3 18 3e 3d ff a3 be dc 42 91 3e
       0.04502586 0.14924432 -0.3203067 0.28371322
000320 20 02 13 be 10 6d 3c be e9 a9 56 3e d7 37 73 bd
       -0.1435628 -0.18400979 0.20963253 -0.059379425
000330 e2 d5 1a bd 2b 4e 77 3d b5 fe ba bc 33 cd 61 3e
       -0.03780163 0.06037728 -0.022826532 0.22050934
000340 ce fd 72 3d cf 09 18 3e b6 a3 a4 be df 3e 97 3e
       0.05932408 0.14847492 -0.32156152 0.29540154
000350 19 d6 2b be ad f5 3e be f4 3b 4c 3e 9e f5 8f bd
       -0.1678089 -0.18648405 0.19944745 -0.0702927
000360 67 fa 73 bc 92 37 93 3d 14 8c 20 bc f1 3b 41 3e
       -0.014891244 0.071883336 -0.009799022 0.18870522
000370 5a b8 1c 3d 43 85 0a 3e 2a 5d a0 be 2b 52 9b 3e
       0.03826175 0.13527398 -0.3132108 0.30336127
000380 e7 19 2b be 8d b6 33 be e5 90 44 3e 8c 33 88 bd
       -0.167091 -0.17550106 0.19195898 -0.06650457
000390 83 4d 91 3b 37 da 96 3d f3 a0 b1 bb 23 d9 4c 3e
       0.004434289 0.0736584 -0.005420798 0.20004706
0003a0 26 40 44 3c 00 d0 ff 3d 1e 93 a0 be 50 ff 8b 3e
       0.011978185 0.12490845 -0.31362242 0.27343225
0003b0 75 61 15 be 55 97 31 be d7 3b 47 3e 75 44 5e bd
       -0.14587958 -0.17342885 0.19456421 -0.054264504
0003c0 88 7d e7 3c 6d 3c ac 3d 2e e6 ab 3b e7 72 36 3e
       0.0282581 0.08409963 0.0052459454 0.1781727
0003d0 f9 8c 8b 3c b5 79 d0 3d 0e f5 96 be 23 2c 8e 3e
       0.017034994 0.10179464 -0.29483837 0.2776805
0003e0 24 f2 1c be c4 c5 31 be fa d5 31 3e b9 d7 46 bd
       -0.15326744 -0.17360598 0.17366782 -0.048545573
0003f0 81 36 62 3d ef 32 88 3d 28 9b d8 3c f9 a9 15 3e
       0.05522776 0.0665034 0.026441172 0.1461562
