results/raw_openmiir_sce_simpleconv_dotprod/simple_nn_fold_0_weights.npy (npy, 844400 bytes, 1 tensors)

array f4 [5, 3518, 12]
00000000: 7a8c 043e 8fe0 833d 43a2 82bd e693 4c3e
00000010: 12ae 13bd 15b1 7ebd 87bb 26be 0c2a 9ebd
00000020: 489d d43d 3288 2a3e ea76 40be cb8e 7fbd
00000030: 5480 143e 59fe 623d 0839 b3bd e673 7a3e
00000040: 41bc 4fbd f601 62bd fe36 f9bd 3156 d9bd
00000050: c831 8c3d 4adc 233e 0e7a 15be 26b9 86bd
00000060: 4a45 0b3e 5812 893d 44a1 e9bd 944f 723e
00000070: 9e8b 3abd 0898 a3bd 7682 babd 2901 bcbd
00000080: e78a 243d 077e 043e d1f5 e2bd 3a96 a9bd
00000090: fe34 1e3e b257 9d3d d241 e9bd c88c 833e
000000a0: 4f60 4cbd 739a 8ebd 970a 5fbd 8741 debd
000000b0: 9a9c 3c3c 3b95 a53d cb1b b0bd 4837 a1bd
000000c0: 8637 fc3d c801 8c3d 8bdb 0cbe 24a0 863e
000000d0: 8f45 babc 714f 06bd 0fbe b4bc df28 06be
000000e0: 3386 3fbc 4b05 243d 3a0d 41bd 1e56 61bd
000000f0: f648 0d3e daee 533d 6795 04be 806d 723e
00000100: 04d6 d1bc 89aa 883c e8e9 7e3c b353 ebbd
00000110: 372d 84bc 6049 d3bb d11e 903c 3fc0 65bd
00000120: 5e46 f73d cdd3 6e3d 1233 09be 1238 6e3e
00000130: a10b 17bd 3c77 3c3d c4b2 8e3c b2b6 9ebd
00000140: ac4a 61bd 8497 63bd 9b8d 913d f2a3 64bd
00000150: 4346 db3d 4fe5 453d b572 23be 0c6c 3b3e
00000160: 7917 c3bc eb93 953d ccb5 dcbb 7be9 92bd
00000170: 024e 52bd 093d acbd b7ba a83d e783 a1bd
00000180: daae a93d f508 4e3d 4eea 1dbe 5f76 113e
00000190: 5f12 e63b 1354 053e 956a f2bc 7ee8 32bc
000001a0: 16d5 46bd fcdf e1bd 9756 063e f8dd 54bd
000001b0: 0c62 5f3d 1cb7 353d 3c9d 3dbe 3f05 883d
000001c0: 91ed c63b 7a55 013e 57d3 7dbd 4117 393d
000001d0: f65b 54bd 76d4 0bbe 34b0 243e d01d 79bd
000001e0: 605a f23c dc49 773d 9630 34be e467 453d
000001f0: c03f 0e3c f97b 343e a2a6 99bd c2df ab3d
00000200: 1f02 9fbd 6f63 34be 7db1 1a3e ea94 35bd
00000210: a3f8 a63c 10c6 4e3d c132 2fbe 0354 fe3b
00000220: 94fb 483d ea12 293e 1183 0ebe 7686 1e3e
00000230: 2394 95bd 7112 1ebe 803a 383e d67f 5fbd
00000240: 1124 673c 0154 5f3d 3383 3bbe 5e05 58bc
00000250: f4c5 6f3d 9ab7 433e 5000 15be 339d 2f3e
00000260: 4145 8dbd 3a2b 31be 187a 1f3e f02c 30bd
00000270: 0f7d 9d3c 305d 593d 070d 32be de55 103c
00000280: 91ce 7f3d decc 2f3e 86b2 38be eb62 533e
00000290: a04e b0bd 0f93 33be 2822 333e 2e22 19bd
000002a0: 871a 023d 156c 483d 7d49 3cbe ac67 5f3d
000002b0: efcc 993d 236b 393e 5075 52be 5e13 653e
000002c0: 7666 f7bd e580 4dbe 79b9 093e 4ea6 f0bc
000002d0: 7246 ab3c 2fa6 813d 743e 24be 805e 913d
000002e0: 08d3 c63d 28f0 333e ce4f 5ebe 52aa 833e
000002f0: ffca e1bd 4fb7 39be 7385 143e 73ad 75bc
00000300: 84ff 763c d7a7 a03d 4c1a 10be f7ae b53d
00000310: fb2c bd3d fa4d 0f3e 67cc 7ebe 7b2a 713e
00000320: 5e23 ecbd 631a 38be 78e9 eb3d 4548 8abc
00000330: b384 263d f190 9b3d b827 1abe 6074 123e
00000340: e677 aa3d 8615 f53d 7bd9 84be 18cd 753e
00000350: 8596 04be 7d07 46be 5eb8 bd3d 70a7 92bc
00000360: be75 0b3d 9a6a a23d f7f8 f4bd a0aa 1e3e
00000370: 733b b13d 5a5a e53d 3566 88be 475a 833e
00000380: 661b 00be 11d8 48be 3f8f 8e3d e3bb 01bd
00000390: 9987 763d aae9 943d c766 cabd 7bb4 243e
000003a0: a00f 8c3d d20f ec3d 518a 72be a6ef 6c3e
000003b0: 4a1c 04be bd38 27be 0469 7d3d cf6a 48bd
000003c0: f727 973d ac9a 9e3d 8dcc 40bd ca4f 4c3e
000003d0: 959d 813d 29c2 b93d c9f1 80be c466 6d3e
000003e0: 5f2b 1bbe 4185 26be 4fbf 313d 8d47 8abd
000003f0: f952 a33d 82ba 513d 5e9f c6bc b7a8 353e
0.12944213 0.064393155 -0.06378605 0.19978294 -0.03605468 -0.062180597 -0.16282474 -0.077228636
0.103815615 0.16653517 -0.18795362 -0.062392037 0.14502078 0.055418346 -0.08751112 0.24458274
-0.050716642 -0.05517765 -0.12168692 -0.10612143 0.068454325 0.16002002 -0.14597341 -0.06578283
0.1360065 0.06692952 -0.11407712 0.23663169 -0.045543306 -0.07987982 -0.09106915 -0.09179909
0.04017153 0.129387 -0.11082042 -0.082806066 0.15449902 0.07682742 -0.11389507 0.25693345
-0.049896535 -0.069630526 -0.05445346 -0.10852342 0.011511946 0.08085104 -0.08599051 -0.07871872
0.12315278 0.06836277 -0.13755624 0.26294053 -0.022738246 -0.032790605 -0.022063283 -0.13101529
-0.01168971 0.04004411 -0.047131754 -0.05501377 0.13797364 0.05174146 -0.12947617 0.23674583
-0.025614746 0.01668288 0.015558697 -0.11490574 -0.016134841 -0.006447956 0.01759282 -0.056091543
0.12073968 0.058307458 -0.13398388 0.23263577 -0.036876325 0.04601215 0.017419226 -0.0774969
-0.055002853 -0.05556442 0.07107087 -0.055820413 0.10706761 0.04831439 -0.15961726 0.18302935
-0.023814904 0.07303604 -0.006735539 -0.07173439 -0.051343925 -0.08410079 0.08238738 -0.078864865
0.082853034 0.05030151 -0.15421411 0.14205311 0.007021233 0.13020353 -0.029591838 -0.010919688
-0.04854306 -0.1102905 0.13118969 -0.0519695 0.054536864 0.04436408 -0.18517011 0.066416256
0.0060708006 0.12630263 -0.061969128 0.045188192 -0.051845513 -0.13655266 0.16082841 -0.060819447
0.02958411 0.060373172 -0.17596659 0.04819478 0.008682191 0.17625417 -0.07502486 0.08392288
-0.077640764 -0.17616056 0.15106769 -0.04433147 0.020382231 0.050481856 -0.17109205 0.00776148
0.04906805 0.16511121 -0.13917185 0.1548098 -0.073036455 -0.15436722 0.17991066 -0.054565273
0.01410772 0.05452347 -0.18311767 -0.013184873 0.058538392 0.19113007 -0.145509 0.1714981
-0.06897975 -0.17301646 0.15573919 -0.043011606 0.019224672 0.053067386 -0.17387782 0.008809535
0.062452856 0.17167994 -0.18036851 0.20643203 -0.086087465 -0.17536567 0.17493498 -0.037386112
0.03176358 0.0489312 -0.18387409 0.05454223 0.07509791 0.18107276 -0.20552564 0.22370669
-0.1208009 -0.200687 0.13449658 -0.029376175 0.020907614 0.06330525 -0.16039449 0.070981026
0.0970822 0.17572081 -0.2171013 0.25715882 -0.110250466 -0.18136333 0.14504032 -0.014994967
0.015075568 0.07844513 -0.14072531 0.088712625 0.09237095 0.1399459 -0.24882661 0.23551361
-0.11530183 -0.17978816 0.1151914 -0.016880164 0.040653896 0.07596005 -0.15054214 0.14302206
0.0832365 0.11966996 -0.25947174 0.24004018 -0.12948044 -0.19338794 0.09263681 -0.017902106
0.034047835 0.07930489 -0.11961549 0.15494776 0.08653917 0.11198874 -0.26640478 0.25654814
-0.12510452 -0.19613673 0.06960916 -0.031673323 0.06018791 0.072711304 -0.098828845 0.16084473
0.06838918 0.11526455 -0.23685576 0.23138294 -0.12901416 -0.16330238 0.06186773 -0.048929986
0.073806696 0.07744345 -0.047070075 0.19952312 0.063288845 0.09070236 -0.25184467 0.23183733
-0.15153264 -0.1626177 0.043395337 -0.067519285 0.0797481 0.05120326 -0.024245914 0.17740141
