results/raw_openmiir_sce_simpleconv_dotprod/simple_nn_fold_3_weights.npy (npy, 844400 bytes, 1 tensors)

array f4 [5, 3518, 12]
000000 f2 9c 46 3d 54 fd 13 3e cc b1 df bd 1b 8e 2b 3e
       0.04848952 0.14452106 -0.10922584 0.16753428
000010 31 0a 90 bd c7 3c 17 bd cf 46 e8 bd 2c f3 24 bd
       -0.07033194 -0.036923196 -0.11341631 -0.04027097
000020 07 c7 bc 3d 4f 3a 28 3e d8 7d 0f be c8 62 27 bd
       0.09217649 0.16428493 -0.1401285 -0.04086569
000030 a7 ab 8b 3d 6c 07 ed 3d 4f 8a e3 bd cc d6 3e 3e
       0.068198495 0.11573681 -0.11110365 0.18636626
000040 57 c6 8b bd c3 21 37 bd 8d 52 9e bd aa 14 63 bd
       -0.0682494 -0.044709932 -0.07730589 -0.05543963
000050 cd 33 b1 3d f8 da 05 3e 1c 82 e2 bd 1e 90 73 bd
       0.08652458 0.13071811 -0.11059973 -0.059463613
000060 a2 c4 a2 3d 8b fa f2 3d f3 41 cc bd 78 5b 51 3e
       0.07947661 0.118641935 -0.09973516 0.20445049
000070 6d 2d 76 bd 5c 01 9d bd 7c bf 53 bd bf ef 94 bd
       -0.060101915 -0.07666275 -0.051696286 -0.072722904
000080 e4 8e 8a 3d 3c 82 04 3e ee 54 00 be 1c 51 84 bd
       0.067655355 0.12940305 -0.12532398 -0.06460783
000090 20 86 fd 3d 72 66 7c 3d 0d f0 eb bd ae e9 4c 3e
       0.12379098 0.061621137 -0.115203954 0.20011017
0000a0 88 87 0d bd b3 d8 51 bd c9 42 96 bc 95 e2 b5 bd
       -0.03455308 -0.05123205 -0.018342393 -0.08881108
0000b0 35 14 48 3d 02 ba d6 3d d6 b8 a0 bd 45 b6 a3 bd
       0.048847396 0.10484697 -0.07847755 -0.079937495
0000c0 0d 0e f7 3d 08 d1 07 3d fd a5 02 be 93 ec 44 3e
       0.12063227 0.033158332 -0.12758632 0.19230871
0000d0 88 68 ac bc 47 bb 44 bd fb 65 63 ba 8c 98 9a bd
       -0.021045938 -0.048030164 -0.0008674559 -0.07548627
0000e0 8c cc 35 3d 70 0a 45 3d a1 3f 82 bd 22 43 e1 bd
       0.044384524 0.048105657 -0.063597925 -0.10999133
0000f0 12 2c f1 3d 03 71 bd 3c 45 b3 0a be df 25 35 3e
       0.11775984 0.023125177 -0.13544948 0.17690228
000100 51 98 aa 3b 63 f9 9e 3b 1a 03 df 3c 41 5d b7 bd
       0.005206146 0.0048515066 0.027223159 -0.08953334
000110 ee ab 99 3c 40 5b 86 3c 5e 87 c2 bc 03 2e d9 bd
       0.01875874 0.016400933 -0.023746189 -0.10604479
000120 bc 14 06 3e a7 8e e7 bb 6f e5 df bd 1c 15 10 3e
       0.13093847 -0.007066566 -0.10932433 0.14070553
000130 76 fe 26 bb 6b 15 dd 3c ae 67 f3 3c 56 a5 57 bd
       -0.002548126 0.026987752 0.029712524 -0.05264791
000140 ed 5d b5 3c 82 47 58 3b 28 45 c4 3a 02 2f 04 be
       0.022139514 0.0033001606 0.0014974223 -0.12908557
000150 5d 81 d7 3d 41 43 11 bc 9a 6a 07 be 53 a7 ca 3d
       0.10522721 -0.008866132 -0.13224259 0.09895196
000160 b9 14 e4 3c 0d 3f 6f 3d 08 a2 93 3c 1f f4 3c bd
       0.027841913 0.05840974 0.018021598 -0.04613125
000170 6d c9 a0 3c a1 34 80 bc 09 73 32 3d 95 77 14 be
       0.019627297 -0.015650095 0.043566737 -0.14498742
000180 ba 0c a0 3d 17 fc e9 bc 76 85 ee bd 12 a1 70 3d
       0.078149274 -0.028562589 -0.116465494 0.05874736
000190 d7 70 ba 3c 5c a9 af 3d 37 c9 cf 3c cb c7 60 3c
       0.022758884 0.085772246 0.025364501 0.013719509
0001a0 ad 93 c4 3c 6c 2d 62 bd 26 5f a1 3d c3 d6 02 be
       0.023996199 -0.0552191 0.07879476 -0.12777238
0001b0 86 cf 7e 3d 83 e4 d6 bc 5d de ef bd f6 78 ef 3c
       0.06220963 -0.02623201 -0.11712334 0.029232483
0001c0 27 d6 76 3c db ef f1 3d e4 fc af 3b 04 0b 84 3d
       0.015065706 0.11813327 0.005370723 0.064474136
0001d0 f1 d6 1d 3c da a0 bd bd e2 24 e0 3d c2 e2 14 be
       0.009633766 -0.092591956 0.10944535 -0.14539626
0001e0 78 df 1e 3d 4d 26 48 bd 2d 24 06 be 02 af 3a 3c
       0.038787335 -0.04886465 -0.13099737 0.011394264
0001f0 17 41 24 3d 91 b1 0a 3e 7c 30 db bc 01 44 e8 3d
       0.040101137 0.13544299 -0.026756518 0.11341096
000200 16 5b 29 bc 91 00 9c bd 4b 28 02 3e 62 be 21 be
       -0.010336658 -0.076172955 0.12710683 -0.15795282
000210 7b fc 4a 3d 11 92 04 bd f2 d9 fe bd 73 d6 aa bc
       0.04955719 -0.032365862 -0.124439135 -0.02085421
000220 d5 68 86 3c 86 83 05 3e e6 0e 26 bd 20 5b 29 3e
       0.01640741 0.13038453 -0.040541552 0.16538668
000230 5d 1f 01 bd 08 8c dd bd fb 5c 0e 3e 22 a0 0e be
       -0.03152405 -0.108177245 0.13902657 -0.13928273
000240 8d 98 ba 3c f8 56 db bc f8 87 16 be e0 dc a7 bb
       0.02277782 -0.026774868 -0.14700305 -0.005122766
000250 04 d6 01 3d fe fc 23 3e eb ed 97 bd f7 a7 3b 3e
       0.03169824 0.16014478 -0.07418426 0.18325792
000260 03 cc b1 bc 51 9e 03 be eb 6d 17 3e e9 a9 0c be
       -0.021703726 -0.12853362 0.14788024 -0.1373669
000270 15 cc 29 3c b3 90 11 bd a7 2f 00 be 72 60 07 3d
       0.010363598 -0.035538387 -0.12518178 0.03305096
000280 31 57 a4 3b 30 75 03 3e 1b 5e ef bd b8 62 53 3e
       0.005015277 0.12837672 -0.11687871 0.20643127
000290 90 f4 9b bc 7c 1b 00 be 35 d5 1d 3e f5 25 f9 bd
       -0.019037515 -0.12510484 0.15413363 -0.12165443
0002a0 57 23 af 3c 8d ab e2 bb 9d a4 e8 bd d1 93 26 3d
       0.021379156 -0.006917423 -0.113595225 0.040668312
0002b0 c0 0e 5e 3c 91 85 e7 3d a2 87 10 be b1 a8 59 3e
       0.013553321 0.11304773 -0.1411424 0.21255757
0002c0 82 07 06 bd c2 21 10 be 7b 05 15 3e 7c da 0d be
       -0.032722004 -0.14075378 0.14552872 -0.13852876
0002d0 76 79 24 38 af 45 b4 3c cd 4e 03 be 6e dc a2 3d
       3.9213766e-05 0.022005884 -0.12823029 0.079522
0002e0 8b 1f ee 3c 04 cf ce 3d ef cf 1b be e9 3c 81 3e
       0.029067775 0.10098079 -0.15216039 0.25241783
0002f0 1d a6 60 bd c8 78 f8 bd ed cd dc 3d eb 7a fb bd
       -0.054845918 -0.12132412 0.10781465 -0.12279304
000300 c4 ac 1c 3d 1b d0 4c 3d 8f 7a e6 bd c6 25 e5 3d
       0.0382507 0.050003152 -0.11253845 0.11188845
000310 10 57 fb 3c e3 2b bc 3d b0 88 2d be 10 06 71 3e
       0.030681163 0.09188058 -0.16946673 0.23537469
000320 f1 e7 b3 bd 51 2b 05 be d0 94 dd 3d 83 09 e7 bd
       -0.08784474 -0.13004805 0.10819399 -0.11281111
000330 e5 46 18 3d 52 a9 57 3d dc 1f a5 bd 75 09 d6 3d
       0.037176985 0.05265171 -0.08062717 0.104510225
000340 a6 a4 cf 3c 37 37 4b 3d 58 23 23 be d6 13 81 3e
       0.025347065 0.049613204 -0.15931451 0.25210446
000350 b7 29 ca bd f7 63 07 be 4c 13 ed 3d 39 52 f8 bd
       -0.09871238 -0.13221727 0.11575946 -0.12125058
000360 ca 02 8f 3d e6 2c b4 3d 5a 16 a0 bd 5b b6 15 3e
       0.06982954 0.08797626 -0.07816763 0.14620344
000370 03 7c 1b 3d 91 e9 b7 3c d0 43 2c be e4 b9 77 3e
       0.037960064 0.02245024 -0.16822743 0.24192005
000380 b1 8b d2 bd eb 07 fd bd a9 b7 b7 3d 4e 22 e1 bd
       -0.1028055 -0.12355026 0.08970577 -0.10992871
000390 b0 c3 c6 3d 29 f2 8f 3d 13 a6 6c bd a5 94 11 3e
       0.09705293 0.0702861 -0.05777557 0.1421686
0003a0 66 ff 9e 3c 30 6c e5 3c 1a a3 2a be 50 e8 65 3e
       0.019408893 0.02800569 -0.16663781 0.22451901
0003b0 14 75 d9 bd f4 c6 ff bd da 9d b3 3d 74 45 f0 bd
       -0.10618034 -0.12489119 0.08770342 -0.11731997
0003c0 49 4a e9 3d 7b 40 c3 3d 5c dd a4 bc 06 09 10 3e
       0.11391122 0.09533783 -0.020125084 0.14065942
0003d0 b9 49 54 3d f3 e9 4c bb f0 b3 21 be 60 a5 58 3e
       0.05182812 -0.0031267374 -0.15791297 0.21156836
0003e0 22 61 e7 bd da 81 06 be 86 16 87 3d 30 9e b6 bd
       -0.112978235 -0.13135472 0.06596093 -0.089168906
0003f0 8b f5 0f 3e 06 fa d3 3d 9d a0 95 bc a1 aa 0c 3e
       0.14058511 0.103504226 -0.018265063 0.13736965
