results/raw_openmiir_sce_simpleconv_dotprod/simple_nn_fold_5_weights.npy (npy, 844400 bytes, 1 tensors)

array f4 [5, 3518, 12]
-0.018259486 0.14486508 -0.087099545 0.18211153 0.085790925 -0.048727274 -0.08577591 -0.2431352
0.12973641 0.2708655 -0.22111343 -0.07192951 0.02958405 0.11172587 -0.11600062 0.23565887
0.11045717 -0.028860934 -0.091266304 -0.24389656 0.13612871 0.26526436 -0.23142701 -0.06603356
0.06252755 0.08371047 -0.15284412 0.2589797 0.08052864 -0.034475684 -0.08365389 -0.24141844
0.06946736 0.2394321 -0.20696971 -0.050050795 0.10690904 0.075550705 -0.14457917 0.3011939
0.111454435 -0.0062852995 -0.10372208 -0.2060544 0.0538262 0.20658192 -0.1864424 -0.05626428
0.12194257 0.07170456 -0.17923853 0.29894048 0.07976226 0.0077246837 -0.09975594 -0.1933657
0.0048079756 0.17406563 -0.14716314 -0.015367912 0.10316505 0.09293017 -0.19997546 0.2792841
0.100030996 0.054646034 -0.11389343 -0.15389962 -0.027808655 0.12205577 -0.084061064 -0.02293437
0.10764404 0.10127183 -0.20092258 0.24248621 0.106104344 0.12156119 -0.12129346 -0.1067367
-0.05238654 0.046740275 -0.038884394 -0.018994605 0.07779199 0.09879247 -0.20017229 0.22614388
0.10447896 0.17513965 -0.13605243 -0.059319746 -0.06156575 -0.0050401157 0.017958388 -0.046799727
0.025380988 0.11132608 -0.24060494 0.17882259 0.108551934 0.22690122 -0.14468712 0.028316189
-0.07952484 -0.05020046 0.100356564 -0.06256672 -0.007970802 0.12930727 -0.2382407 0.14515308
0.108147085 0.2504497 -0.16355188 0.0869502 -0.100263335 -0.12751089 0.13622425 -0.07737054
-0.014792164 0.14331345 -0.23371148 0.09624964 0.10753504 0.26307917 -0.1683075 0.13964315
-0.096592434 -0.17910229 0.18395777 -0.11757344 -0.052588504 0.14783448 -0.23056808 0.0860907
0.10522142 0.27855968 -0.16438182 0.22268066 -0.112741455 -0.20030598 0.18228959 -0.13575931
-0.09042335 0.17781778 -0.23419575 0.07764577 0.12217328 0.28182873 -0.19162916 0.2603057
-0.14382915 -0.22772206 0.21079513 -0.17409323 -0.09773063 0.17915998 -0.20477444 0.06460744
0.13019721 0.30200517 -0.19836544 0.26847276 -0.15961821 -0.2649858 0.23967375 -0.15913424
-0.10366458 0.19332531 -0.21834199 0.08496728 0.15478723 0.27719742 -0.21415833 0.28859806
-0.17648256 -0.2793285 0.2296388 -0.19291136 -0.08100373 0.23036808 -0.17935255 0.115934
0.15549813 0.26663464 -0.2338915 0.3265926 -0.16003805 -0.28914055 0.20919675 -0.17692232
-0.0708973 0.21176367 -0.15190357 0.14652015 0.1463725 0.24205613 -0.22636016 0.33057874
-0.19574636 -0.28841296 0.20638414 -0.18048024 -0.050209243 0.242726 -0.13397343 0.17128962
0.14404353 0.23623632 -0.23710462 0.33198282 -0.1914229 -0.31970543 0.18346679 -0.14554524
-0.031861298 0.24807006 -0.11903655 0.22402297 0.11933306 0.23554029 -0.25459027 0.31420404
-0.2223684 -0.2889532 0.1733182 -0.1518684 0.008321155 0.22476408 -0.10685494 0.24095261
0.09779742 0.1927652 -0.28637537 0.3082801 -0.23167622 -0.28183168 0.15267543 -0.09726817
0.0662733 0.23865448 -0.06963631 0.27947292 0.07746411 0.21110506 -0.27396297 0.2497358
-0.23657349 -0.27143794 0.11973504 -0.0705788 0.10613778 0.24083936 -0.033576813 0.26883188
00000000: eb94 95bc 8357 143e 3f61 b2bd 727b 3a3e
00000010: 27b3 af3d 4096 47bd 48ab afbd 6ff8 78be
00000020: 9fd9 043e e2ae 8a3e 8f6b 62be c74f 93bd
00000030: 405a f23c 88d0 e43d bc91 edbd 8f50 713e
00000040: 5e37 e23d c46d ecbc d4e9 babd 05c0 79be
00000050: 5365 0b3e bbd0 873e 34fb 6cbe 9a3c 87bd
00000060: 720e 803d 6570 ab3d 2b83 1cbe fd98 843e
00000070: 33ec a43d 6036 0dbd bb52 abbd 6536 77be
00000080: e744 8e3d b02d 753e deef 53be 1002 4dbd
00000090: 20f3 da3d 54ba 9a3d 900c 14be 1636 9a3e
000000a0: 3942 e43d eaf4 cdbb 3e6c d4bd edff 52be
000000b0: dd78 5c3d 368a 533e c2ea 3ebe 6075 66bd
000000c0: 07bd f93d d7d9 923d 4e8a 37be ba0e 993e
000000d0: 655a a33d 581f fd3b d84c ccbd a801 46be
000000e0: 398c 9d3b 433e 323e efb1 16be b2c9 7bbc
000000f0: 3348 d33d 2c52 be3d 5ec6 4cbe 53fe 8e3e
00000100: 0ddd cc3d 85d4 5f3d f540 e9bd dd97 1dbe
00000110: face e3bc 60f8 f93d 3528 acbd dce0 bbbc
00000120: 7a74 dc3d 9b67 cf3d a6be 4dbe 4e4e 783e
00000130: 3c4d d93d 13f5 f83d b568 f8bd c598 dabd
00000140: 4593 56bd bb72 3f3d 3e45 1fbd 939a 9bbc
00000150: 6851 9f3d b553 ca3d f7f9 4cbe 4392 673e
00000160: 11f9 d53d cf57 333e 5451 0bbe 43f9 72bd
00000170: 5e2c 7cbd 8e27 a5bb 781d 933c 12b1 3fbd
00000180: caeb cf3c eefe e33d 2461 76be 451d 373e
00000190: 7a50 de3d cb58 683e dc28 14be 5af7 e73c
000001a0: ebdd a2bd ff9e 4dbd be87 cd3d fb22 80bd
000001b0: f797 02bc 2069 043e 5ff5 73be 02a3 143e
000001c0: 387c dd3d f13a 803e 257a 27be f212 b23d
000001d0: dd56 cdbd 3792 02be 5f7e 0b3e 7274 9ebd
000001e0: d55a 72bc c3c0 123e 1052 6fbe 881e c53d
000001f0: 553b dc3d 50b2 863e cd58 2cbe 9dfe 0e3e
00000200: 41d2 c5bd 9766 37be 6d5f 3c3e 58ca f0bd
00000210: 0b67 57bd ec61 173e 0a1a 6cbe 5250 b03d
00000220: 547e d73d 609f 8e3e b553 28be 6606 643e
00000230: fee4 e6bd 031d 4dbe 1faa 3a3e 7d04 0bbe
00000240: e12f b9bd dd15 363e 03d1 6fbe bf04 9f3d
00000250: fc35 fa3d db4b 903e 6f3a 44be ca46 853e
00000260: f347 13be f92f 69be aeda 573e 7f45 32be
00000270: ff26 c8bd b775 373e 64b0 51be e850 843d
00000280: 6b52 053e 6ca0 9a3e 4f20 4bbe 4375 893e
00000290: f572 23be 38ac 87be 096d 753e 16f4 22be
000002a0: 184e d4bd 12f7 453e 0b95 5fbe 5303 ae3d
000002b0: 8b80 1e3e d2ec 8d3e 524c 5bbe 20c3 933e
000002c0: d8b7 34be 2504 8fbe 6f26 6b3e 8e8a 45be
000002d0: 49e5 a5bd 9ce5 6b3e 32a8 37be ce6e ed3d
000002e0: e73a 1f3e 5684 883e 4181 6fbe 2537 a73e
000002f0: 04e1 23be 3b0a 94be ac37 563e 202b 35be
00000300: 9b32 91bd 93d8 583e 9c8c 1bbe 6109 163e
00000310: ace2 153e 90dd 773e f5ca 67be 9e41 a93e
00000320: bc71 48be ddaa 93be 5d56 533e d0cf 38be
00000330: 35a8 4dbd 2a8d 783e 5530 09be 8c66 2f3e
00000340: 2680 133e efe7 713e 8ecb 72be a7f9 a93e
00000350: 5d04 44be 6eb0 a3be b8de 3b3e d009 15be
00000360: fe80 02bd 1406 7e3e 6fc9 f3bd 4766 653e
00000370: e464 f43d 7931 713e a859 82be 5adf a03e
00000380: 8bb4 63be adf1 93be 547a 313e 6483 1bbe
00000390: 7455 083c 8e28 663e c3d6 dabd 48bc 763e
000003a0: 044a c83d 3e64 453e cb9f 92be e4d6 9d3e
000003b0: 883c 6dbe 3e4c 90be f356 1c3e 8934 c7bd
000003c0: 4cba 873d d761 743e 7b9d 8ebd 1317 8f3e
000003d0: 81a5 9e3d ed2b 583e e044 8cbe beba 7f3e
000003e0: 5240 72be eaf9 8abe a537 f53d 9e8b 90bd
000003f0: c45e d93d 989e 763e d787 09bd 55a4 893e
