results/raw_openmiir_sce_simpleconv_dotprod/simple_nn_fold_4_weights.npy (npy, 844400 bytes, 1 tensors)

array f4 [5, 3518, 12]
0.10452335 0.016380245 -0.06518605 0.10857536 -0.021289025 -0.013962815 -0.03323646 -0.112763725
0.0048363693 0.06528407 0.005240698 -0.051484287 0.09463944 -0.0009696447 -0.088598765 0.13630892
-0.027183639 -0.038828343 0.007792373 -0.097731724 -0.017800914 0.042164873 0.026622 -0.06910343
0.12742005 0.011655008 -0.07225884 0.120858245 0.003226573 -0.03260161 0.015726026 -0.10296447
-0.038426034 0.06516242 0.014023988 -0.060949236 0.13974436 0.029099401 -0.0842667 0.1310628
0.011610974 -0.011649611 0.026525872 -0.106285505 -0.041799784 0.04193265 0.0076290923 -0.077900104
0.13485894 0.018863529 -0.08280031 0.08709517 0.0083993245 -0.0024707248 0.03469544 -0.10641925
-0.057933055 0.025211124 0.037306797 -0.08125884 0.13419393 0.024031295 -0.09783793 0.07774214
0.02246373 0.018344186 0.065449946 -0.11477051 -0.06363537 0.010919872 0.039670605 -0.074264795
0.11816585 0.03477214 -0.09445969 0.06737252 0.019030774 0.073349826 0.047701504 -0.094572335
-0.07755777 0.02263997 0.047627848 -0.07531104 0.080982335 0.034862276 -0.08536467 0.036988582
0.02710532 0.10276574 0.06626224 -0.0843403 -0.07448799 0.0059406534 0.07604173 -0.08904972
0.07021327 0.04278881 -0.085790135 0.010875492 0.034879535 0.09759934 0.046862222 -0.07326577
-0.07873504 -0.02135187 0.06905202 -0.08196169 0.032304578 0.038055893 -0.10141167 -0.008293243
0.012402475 0.10823938 0.06065133 -0.06985296 -0.11140925 -0.029804513 0.08348341 -0.077447094
0.02180047 0.06665429 -0.09592555 -0.009884968 0.006793271 0.14603199 0.032402862 -0.022911554
-0.092987716 -0.056504544 0.07827959 -0.05458199 -0.0151002295 0.07511579 -0.074372336 0.0011812964
0.0132994335 0.13153018 0.023688428 0.010126919 -0.10831512 -0.05918274 0.09246362 -0.07100139
-0.015630256 0.08626455 -0.08313338 -0.0087087 0.0036763945 0.14750446 -0.010522868 0.015957989
-0.119047165 -0.07322576 0.09374795 -0.06744556 -0.047037233 0.079911746 -0.07859957 0.014099242
0.022318339 0.13003728 -0.023295118 0.06765222 -0.13992022 -0.077286795 0.08690698 -0.060611587
-0.04279297 0.10845361 -0.064016536 0.049834806 0.014710139 0.14922902 -0.04933427 0.06584339
-0.13387321 -0.060451705 0.09575189 -0.057138454 -0.035945363 0.098963805 -0.06564993 0.060899273
-0.013628388 0.141572 -0.09197618 0.079276495 -0.12531786 -0.057632763 0.10581289 -0.07766408
-0.03679797 0.09714914 -0.03845517 0.067186505 0.0032633138 0.109173976 -0.077126965 0.102956906
-0.11305132 -0.05817041 0.085084245 -0.06829815 -0.037039824 0.117001675 -0.02487829 0.09825906
0.009100269 0.0964784 -0.112860166 0.09532 -0.1300102 -0.08815141 0.094931275 -0.061988223
-0.01638094 0.10589485 -0.025915025 0.11240647 -0.014858132 0.11795477 -0.10926072 0.09410685
-0.1165532 -0.060688447 0.087147824 -0.093597844 0.012857695 0.12697764 -0.03313546 0.120530985
-0.017810846 0.110519476 -0.109901026 0.11123601 -0.1091661 -0.060705047 0.07926136 -0.09869344
0.032407615 0.1079888 0.009289842 0.116429456 0.00080689613 0.09374229 -0.09426396 0.10430645
-0.12718621 -0.08201577 0.09303616 -0.07581535 0.044242848 0.11210619 0.011077429 0.1071276
00000000: 5710 d63d dd2f 863c 4480 85bd c25c de3d
00000010: 5266 aebc 4ac4 64bc f422 08bd abf0 e6bd
00000020: 687a 9e3b a8b3 853d 29ba ab3b 30e1 52bd
00000030: 53d2 c13d c12f 7eba 4573 b5bd 9194 0b3e
00000040: 39b0 debc 780a 1fbd 2a57 ff3b 9227 c8bd
00000050: 39d3 91bc 13b5 2c3d 6116 da3c 1986 8dbd
00000060: 677a 023e a6f4 3e3c 71fc 93bd 8784 f73d
00000070: ea74 533b 4489 05bd ded3 803c 09df d2bd
00000080: 9e64 1dbd e073 853d dec4 653c e8a5 79bd
00000090: 2519 0f3e de61 ee3c 0594 acbd 5435 063e
000000a0: f43b 3e3c 03de 3ebc c94c d93c 37ac d9bd
000000b0: 4036 2bbd 92c1 2b3d 77fd f93b 178a 9fbd
000000c0: 7618 0a3e b087 9a3c 3593 a9bd f45e b23d
000000d0: 529d 093c e2eb 21bb ce1c 0e3d 56f2 d9bd
000000e0: 364b 6dbd 8f87 ce3c 03cf 183d 096b a6bd
000000f0: 226a 093e 47dd c43c 415f c8bd 4537 9f3d
00000100: db05 b83c 8c46 963c 9f0a 863d cd0c ebbd
00000110: 4353 82bd 43e9 323c a57d 223d 2418 98bd
00000120: f000 f23d 3b6d 0e3d 1574 c1bd 9bfa 893d
00000130: 6de6 9b3c 6f38 963d a762 433d 24af c1bd
00000140: 9cd6 9ebd 7577 b93c 6b15 433d ad3c 9abd
00000150: 11da a53d bfcb 0e3d acd3 aebd 5781 173d
00000160: fa0b de3c d876 d23d 7fb4 873d 9bba acbd
00000170: 298d 98bd d0a9 c23b c4bb 9b3d b35f b6bd
00000180: facb 8f3d 5243 2f3d bdb2 afbd 1f2f 323c
00000190: d8dd 0e3d 2ae2 c73d 9af2 3f3d 5d0c 96bd
000001a0: d63f a1bd 1eea aebc 256b 8d3d 88db a7bd
000001b0: ce51 043d 7fe0 1b3d ecb0 cfbd 62e0 07bc
000001c0: c033 4b3c 9cac dd3d 876d 783d 120f 8fbd
000001d0: 882a e4bd 9828 f4bc 5af9 aa3d 959c 9ebd
000001e0: e696 b23c 0b82 883d 9d74 c4bd 90f4 21bc
000001f0: 169a de3b 6989 153e ddb8 043d 03b1 bbbc
00000200: 5870 bebd 4f71 67bd 0d51 a03d 5d91 5fbd
00000210: f466 77bc 4fd6 993d 8650 98bd bbd5 9a3a
00000220: dee5 593c d9af 063e 3c0e c23c 60eb 253c
00000230: 51d4 ddbd 9a69 72bd 915d bd3d 2d69 91bd
00000240: 060b 80bc 78ab b03d d541 aabd efae 0ebc
00000250: aaef 703b 690b 173e 1b68 2cbc 54ba 823c
00000260: 00cf f3bd 63f7 95bd edfe bf3d e620 8abd
00000270: 1daa 40bd c5a8 a33d d0f8 a0bd 8200 673c
00000280: f3d4 b63c 7e28 053e 67d5 bebc 3f8d 8a3d
00000290: 3f47 0fbe 8a48 9ebd 49fc b13d db43 78bd
000002a0: ae47 2fbd ed1c de3d 1a1b 83bd 951f 4c3d
000002b0: cb02 713c 7ecf 183e bb12 4abd e6d8 863d
000002c0: 0f16 09be 359c 77bd 9119 c43d 030a 6abd
000002d0: 723b 13bd 89ad ca3d 7873 86bd 8471 793d
000002e0: 9a49 5fbc 40f8 103e 025e bcbd b75b a23d
000002f0: 5353 00be 5510 6cbd 6eb4 d83d 580e 9fbd
00000300: 78b9 16bd 21f6 c63d 2b83 1dbd 1499 893d
00000310: 52dd 553b 9b96 df3d bef4 9dbd 12db d23d
00000320: 7387 e7bd 1944 6ebd a640 ae3d e7df 8bbd
00000330: 12b7 17bd 939e ef3d 8ecd cbbc 0c3c c93d
00000340: 4b19 153c 7896 c53d 3b23 e7bd 2237 c33d
00000350: 6521 05be ba88 b4bd 546b c23d 5de7 7dbd
00000360: 5231 86bc 66df d83d bf4b d4bc 5d35 e63d
00000370: 866f 73bc 4592 f13d 16c4 dfbd 18bb c03d
00000380: 72b3 eebd 7394 78bd 8f7a b23d 3ab0 bfbd
00000390: 15a9 523c 6d06 023e 0cb9 07bd f3d8 f63d
000003a0: 0de8 91bc 0958 e23d ca13 e1bd b5cf e33d
000003b0: 7a92 dfbd dba5 78bd c853 a23d c91f cabd
000003c0: d9bd 043d 3b29 dd3d 6c34 183c 9172 ee3d
000003d0: e285 533a f5fb bf3d 770d c1bd 9f9e d53d
000003e0: 1a3d 02be e2f7 a7bd be89 be3d 1445 9bbd
000003f0: fd37 353d ee97 e53d 1b7e 353c b765 db3d
