results/raw_openmiir_sce_simpleconv_dotprod/simple_nn_fold_7_weights.npy (npy, 844400 bytes, 1 tensors)

array f4 [5, 3518, 12]
00000000: 050b 093e 1a7e 053e 0953 c6bd 36af 113e
00000010: 4377 163d 7c51 b9bd 87a2 eebd 27e1 27be
00000020: 420d 24bd ac33 bf3e 9c6a f8bd 2a0f 46be
00000030: 5249 253e b3a5 063e d2ae efbd a333 333e
00000040: 4653 123d 3c2e dfbd 73da 9cbd db6a 36be
00000050: 4acf 71bd e173 b03e 9d4b d2bd 83b3 47be
00000060: 801b 253e b8c3 103e 3bbb d2bd 7007 583e
00000070: bdf6 133d a213 cebd d5b0 76bd 6d9b 47be
00000080: 5502 e2bd f855 ae3e 565d cfbd cd5e 49be
00000090: eb22 2f3e 9de2 e93d 9032 debd 0d59 4c3e
000000a0: e2b8 683d d83a 77bd c933 54bb e1f0 39be
000000b0: e02c 11be 35f9 933e ab23 c4bd ea92 21be
000000c0: ed76 2f3e 660e d43d a7a9 91bd 7f12 4e3e
000000d0: 0df0 173d 3eff 20bd a8da 9c3c c7a4 41be
000000e0: 6de1 31be cf3b 5e3e 953d a8bd 88c5 14be
000000f0: 808d 433e 49ad db3d 32d0 16bd bbb1 553e
00000100: 1523 8e3c 0b2c a4bc 13ef 693c 4bb9 23be
00000110: c3df 38be 3696 0e3e a56d 8dbd d718 0cbe
00000120: 3058 2a3e 8573 dc3d 67a8 a9bc 2bf8 223e
00000130: 11c9 783c 78e8 2e3d 0df9 2b3c 48fe e6bd
00000140: 0ef2 59be f7c3 463d 2caf 85bd fd58 e6bd
00000150: de56 3b3e 25f6 d23d 386a 943b 6aad fb3d
00000160: b417 91bb c8e8 973d 2880 933c 4fb6 80bd
00000170: 8399 5fbe 6a6f 33bd 1092 8bbc 1041 a0bd
00000180: 2275 253e 1f63 bc3d ec64 ac3c a684 823d
00000190: 5d5b c9bb 683e ea3d 62ef 80bc 74a1 65bc
000001a0: 5ed2 6fbe 9d1b d2bd 9ac1 a1bc a879 1abd
000001b0: 78c4 ff3d dcfc 943d e8a3 613d d2da 283d
000001c0: fc02 5cbc decd 0f3e 9f6d 47bd 653a ee3c
000001d0: eab9 6cbe 792f 08be f9bb 9d3c 60ff 40bd
000001e0: 0207 c43d b1b5 993d 4070 b23d 8b33 cebc
000001f0: f5c6 d1bc 0131 2e3e e89f bbbd 42ed ad3d
00000200: ff0f 5ebe 3952 36be 2eec ef3c 8c9c d3bc
00000210: f031 b93d 76cb c53d 7479 a23d 1e49 1abd
00000220: 046b 30bd f2a0 463e 071e 22be e6e9 133e
00000230: cd68 55be bde3 4dbe c185 533d 119e be3a
00000240: a091 6c3d 7be7 c73d 6de3 e73d 5f4d 15bd
00000250: 311e ebbc e52f 323e 78a9 54be df49 3b3e
00000260: e320 61be db72 46be 99de 853d 8217 19bc
00000270: af0b 383d 0387 f13d b068 d23d a526 e1bc
00000280: 9d69 91bc 40bf 4a3e 9988 66be 03c0 673e
00000290: 0d27 3fbe 1175 52be 159a 843d 6701 c5bc
000002a0: 6c39 8b3c 37ed 093e a09e ed3d 8bd0 6ebc
000002b0: fa56 583c 799f 373e 0bf8 91be 1cf6 723e
000002c0: 519f 38be 5e01 56be 0eff a43d a9de 87bc
000002d0: ec93 e43b a8d8 063e 5c0d bc3d ff4a 713d
000002e0: fa64 f33c bb9d 103e ddfe 9dbe ec59 893e
000002f0: 453e 08be eaa5 5dbe 9e6f cc3d 8489 bebc
00000300: 53b5 903b ebf8 103e 46f2 c83d 3ab0 b83d
00000310: ee99 733d 094d f83d f7ef a4be 9dff 833e
00000320: 21ca 0dbe 47d2 73be 6686 bf3d 8c44 4cbd
00000330: 7fa5 a13c ef73 243e e365 053e 4ab5 073e
00000340: f8e6 a23d 34e7 b53d c4e8 a4be 7f20 8e3e
00000350: f59a abbd cea2 5ebe 4659 773d 2cf6 aabd
00000360: 8e20 d83b c6de 283e 5cb8 183e 470c 423e
00000370: d3e2 de3d eeea b33d ef29 aabe edb8 833e
00000380: c71a b9bd d3fc 6cbe 38db 783d 4301 b7bd
00000390: aef0 453d 70cc 393e a45b 153e 766a 493e
000003a0: fe3e c73d c83a 293d c5b7 a4be 33aa 873e
000003b0: 8bc9 71bd 5bde 6fbe 3f00 0a3d 525e c2bd
000003c0: c18c 993d b704 213e 5dec 2f3e 3b98 633e
000003d0: f5d6 e33d 9fdc 0c3d add1 a2be 9225 713e
000003e0: 4b27 53bd 0579 5cbe bf53 83bb 18ef 0fbe
000003f0: 9232 ac3d baec 223e cab2 3e3e 3a46 753e
0.1338311 0.13036385 -0.096838064 0.14226994 0.03673483 -0.09048745 -0.116520934 -0.16394483
-0.040051706 0.3734411 -0.12129709 -0.19341722 0.1614125 0.13149147 -0.11703266 0.17500167
0.035723947 -0.108974904 -0.076588534 -0.178142 -0.059035577 0.3446341 -0.10268328 -0.19502072
0.16123772 0.14137161 -0.10289618 0.21096587 0.03612398 -0.100623384 -0.060227234 -0.19492884
-0.11035601 0.34049964 -0.10125224 -0.1966507 0.17103164 0.11420176 -0.10849488 0.19955845
0.056816943 -0.060358852 -0.00323795 -0.18158294 -0.14177275 0.28901067 -0.095771156 -0.157787
0.1713521 0.10354309 -0.07112437 0.20124243 0.037094165 -0.039305918 0.019147232 -0.18910514
-0.1737115 0.21702503 -0.08214871 -0.14528477 0.19096947 0.10726411 -0.036819644 0.2086858
0.017350713 -0.020040533 0.014278191 -0.15988652 -0.18054108 0.13924488 -0.06905679 -0.1368135
0.16635203 0.10764221 -0.020710183 0.15914981 0.015184657 0.04270217 0.01049639 -0.11278969
-0.21283743 0.04852673 -0.06527552 -0.11247442 0.18294856 0.103008546 0.004529264 0.122889355
-0.0044278745 0.074174464 0.018005446 -0.062847726 -0.21835904 -0.043807425 -0.017037421 -0.0782491
0.16157964 0.09198593 0.021044217 0.06372957 -0.0061449246 0.11437684 -0.015739147 -0.014015544
-0.23420092 -0.10259173 -0.019745637 -0.037713677 0.12488645 0.072747916 0.055087954 0.04122431
-0.013428446 0.14043376 -0.048688527 0.029080579 -0.23117796 -0.1329936 0.019254671 -0.047118545
0.09571649 0.07505358 0.08712816 -0.025171062 -0.025607565 0.17010881 -0.09161359 0.08492519
-0.2168579 -0.17804803 0.029287424 -0.025831483 0.09042728 0.09657948 0.079333216 -0.037667386
-0.043070808 0.19397333 -0.15831767 0.14444694 -0.2084076 -0.20106407 0.05164123 0.0014542957
0.057756066 0.09760948 0.11322675 -0.03645074 -0.02870092 0.17401083 -0.20767772 0.18289898
-0.21985202 -0.19379751 0.06536598 -0.009343984 0.044933017 0.117933296 0.10273874 -0.027484247
-0.017750556 0.19799519 -0.22513045 0.2263184 -0.1866724 -0.2055247 0.06474701 -0.02404852
0.016995154 0.13469397 0.11602521 -0.014576088 0.013204331 0.17931928 -0.28509554 0.23726696
-0.18029524 -0.20898959 0.0805646 -0.016585665 0.0069756415 0.13168585 0.091822356 0.058909412
0.029711235 0.1412267 -0.30858508 0.26826417 -0.13305004 -0.21645322 0.09982227 -0.023258932
0.004416147 0.14157455 0.09811835 0.090179875 0.05947297 0.12124068 -0.3221433 0.25780955
-0.13846637 -0.23810683 0.09351806 -0.04987006 0.019732235 0.1605985 0.13027148 0.1325275
0.0795421 0.08881989 -0.32208836 0.27759168 -0.08379165 -0.21741793 0.060387872 -0.08347735
0.0065956777 0.16491231 0.14914078 0.18949996 0.10883107 0.08785044 -0.33235118 0.25727025
-0.090383105 -0.2314332 0.06075594 -0.089357875 0.048325233 0.18144393 0.1458574 0.19669518
0.09728812 0.041315824 -0.32171455 0.2649704 -0.059030097 -0.23424666 0.03369164 -0.094906464
0.0749755 0.15724455 0.17180009 0.2222604 0.11124984 0.03439009 -0.31800595 0.23549488
-0.051551145 -0.2153054 -0.004007786 -0.14056051 0.08408083 0.15910617 0.1862289 0.2395257
