results/raw_openmiir_sce_simpleconv_dotprod/simple_nn_fold_1_weights.npy (npy, 844400 bytes, 1 tensors)

array f4 [5, 3518, 12]
0.19259149 0.19667335 -0.056268588 0.19335376 -0.018191008 -0.06589972 -0.16613974 -0.06510276
-0.057841957 0.12219381 -0.20628116 -0.007517899 0.21377665 0.17255707 -0.054444034 0.22073162
-0.019752277 -0.076247886 -0.12577614 -0.07518712 -0.07483444 0.09426928 -0.17954344 -0.02014128
0.21507046 0.13635197 -0.03673663 0.25563535 -0.023873042 -0.09036298 -0.10378186 -0.09617009
-0.0962442 0.04921685 -0.16205476 -0.008005751 0.23171377 0.11982717 -0.049168497 0.24718207
-0.049381606 -0.071638286 -0.074115425 -0.094916746 -0.101118565 0.032575015 -0.11349547 -0.025900817
0.25191027 0.10317982 -0.046746347 0.25264633 -0.019788614 -0.09288406 -0.0688247 -0.1123257
-0.12334853 -0.026926797 -0.07728248 -0.02344013 0.23896742 0.0860085 -0.048736416 0.23966572
-0.032995105 -0.049562555 -0.068671666 -0.08446204 -0.11974063 -0.07233567 -0.03745479 -0.046882838
0.20800003 0.09639087 -0.050369978 0.2236392 -0.028350852 -0.025343893 -0.07028 -0.08204198
-0.13716462 -0.10576837 0.007109539 -0.027659303 0.21897699 0.06833882 -0.055543263 0.20197153
-0.020188674 -0.0077176336 -0.094495825 -0.04456791 -0.12954256 -0.12019723 0.055883855 -0.04353324
0.19099595 0.08107894 -0.067485556 0.1700234 -0.0015832701 0.04447214 -0.1528727 0.011001734
-0.11988989 -0.14404391 0.12068907 -0.050068587 0.13890398 0.08566543 -0.07511437 0.12711944
0.038921136 0.06865929 -0.16473627 0.0961713 -0.12539496 -0.17115293 0.1484077 -0.05435399
0.11436902 0.11178781 -0.11141028 0.12739375 0.057158373 0.08809352 -0.22477263 0.14419556
-0.12506613 -0.17909043 0.1812437 -0.062822625 0.068796225 0.116506435 -0.11593024 0.08004587
0.07289717 0.10285522 -0.24139115 0.20654121 -0.123731285 -0.201219 0.22322088 -0.065496504
0.043960832 0.15597223 -0.14213954 0.099126406 0.11631988 0.09282639 -0.2579422 0.25879902
-0.1451958 -0.20028234 0.23956695 -0.08248371 0.024855606 0.1675143 -0.15985304 0.103483
0.1324167 0.10761613 -0.2853505 0.27934274 -0.14438374 -0.21254185 0.24129926 -0.07807517
0.014004397 0.20574504 -0.1409425 0.1265145 0.17903243 0.10257664 -0.301284 0.27608016
-0.15795697 -0.21112172 0.2248315 -0.08063048 -0.0048532556 0.21058892 -0.14999713 0.13511512
0.20454258 0.08401388 -0.30241165 0.30342487 -0.12821802 -0.20109797 0.2082235 -0.067013755
0.003113791 0.22461414 -0.14268632 0.15639381 0.20809335 0.09189414 -0.30844977 0.276038
-0.12700565 -0.19850776 0.18724708 -0.08286946 0.004619099 0.21629626 -0.1335897 0.14303404
0.2286327 0.102471374 -0.32940406 0.28241688 -0.13726282 -0.20980543 0.17049155 -0.062416818
0.014558258 0.22608528 -0.1294177 0.16778821 0.21610232 0.08995445 -0.31839535 0.29310408
-0.13496442 -0.2082931 0.13214833 -0.071785845 0.005778104 0.20698105 -0.11125939 0.18384092
0.19307801 0.0933411 -0.30893338 0.27593806 -0.12206948 -0.20342055 0.08662196 -0.05499569
0.048390146 0.19630776 -0.10368996 0.16910881 0.161996 0.07857325 -0.29639012 0.24638759
-0.124818474 -0.18975775 0.054766852 -0.065406404 0.07884406 0.18883295 -0.10107283 0.17283201
00000000: b436 453e bd64 493e e479 66bd 87fe 453e
00000010: 4f05 95bc 6ff6 86bd 8920 2abe 9954 85bd
00000020: b0eb 6cbd c040 fa3d 5e3b 53be b558 f6bb
00000030: 44e8 5a3e cdb2 303e b500 5fbd 7807 623e
00000040: 87cf a1bc da27 9cbd 76cb 00be b4fb 99bd
00000050: cd42 99bd 4110 c13d 3cda 37be 53ff a4bc
00000060: 6e3b 5c3e da9f 0b3e 2679 16bd a3e2 823e
00000070: 6691 c3bc 3a10 b9bd 958b d4bd d3f4 c4bd
00000080: ae1b c5bd 9c97 493d aff1 25be 8e2a 03bc
00000090: 6046 6d3e f367 f53d e864 49bd 4c1d 7d3e
000000a0: 5e44 4abd 18b7 92bd d4c9 97bd b663 c2bd
000000b0: 4017 cfbd 616d 053d 5070 e8bd f32d d4bc
000000c0: 62fa 803e f14f d33d 1979 3fbd dc5a 813e
000000d0: bb1b a2bc 003a bebd f7f3 8cbd 040b e6bd
000000e0: 279e fcbd 9695 dcbc 4746 9ebd 8405 c0bc
000000f0: e0b3 743e 3925 b03d d69f 47bd ee6a 753e
00000100: e025 07bd 1b02 4bbd bba3 8cbd 6ffa acbd
00000110: 933a f5bd b924 94bd 326a 19bd 3808 40bd
00000120: f6fd 543e 9468 c53d c050 4ebd ad01 653e
00000130: 0c40 e8bc ff9d cfbc f6ee 8fbd a005 a8bd
00000140: e274 0cbe 169d d8bd 23f7 e83b c395 e2bc
00000150: 813b 603e 39f5 8b3d 5581 63bd a0d1 4e3e
00000160: b862 a5bc 34e4 fcbb 0787 c1bd d78c 36bd
00000170: cea6 04be f729 f6bd 78e6 643d e94f 32bd
00000180: 7194 433e b70c a63d de35 8abd 9d1a 2e3e
00000190: bb85 cfba 6b28 363d a98a 1cbe 9e40 343c
000001a0: d588 f5bd 3f80 13be d52b f73d b814 4dbd
000001b0: d83c 0e3e 5b71 af3d 90d5 99bd 992b 023e
000001c0: c56b 1f3d 3e9d 8c3d a0b0 28be 75f5 c43d
000001d0: 8967 00be b742 2fbe 30f8 173e 4aa2 5ebd
000001e0: 4e3a ea3d 02f1 e43d 132b e4bd 8273 023e
000001f0: e61e 6a3d 606a b43d cc2a 66be 00a8 133e
00000200: 5611 00be 7b63 37be f397 393e 26a9 80bd
00000210: 09e5 8c3d ed9a ee3d d56c edbd 17ef a33d
00000220: 1d4b 953d c2a5 d23d 3e2f 77be 8a7f 533e
00000230: d466 fdbd 5b0c 4ebe 0494 643e 0823 86bd
00000240: 4610 343d 2fb7 1f3e 078d 11be c902 cb3d
00000250: 1e39 ee3d c31b be3d 0011 84be 4e81 843e
00000260: 35ae 14be d016 4dbe 0a51 753e 38ed a8bd
00000270: fc9d cb3c de88 2b3e 84b0 23be e5ee d33d
00000280: 3e98 073e d865 dc3d 7619 92be 0306 8f3e
00000290: 55d9 13be 92a4 59be 2717 773e e0e5 9fbd
000002a0: b372 653c d4ae 523e 3b53 10be 048d 013e
000002b0: 4754 373e b413 d23d e541 9abe 615a 8d3e
000002c0: 79bf 21be 4b30 58be 3b3a 663e 9821 a5bd
000002d0: 0f08 9fbb 9fa4 573e d998 19be 9e5b 0a3e
000002e0: 9c73 513e 780f ac3d b3d5 9abe 815a 9b3e
000002f0: 964b 03be a0ec 4dbe 8b38 553e 823e 89bd
00000300: bf10 4c3b 4001 663e 5d1c 12be b325 203e
00000310: 6c16 553e ff32 bc3d 21ed 9dbe da54 8d3e
00000320: c50d 02be 9e45 4bbe b3bd 3f3e 77b7 a9bd
00000330: d05b 973b c47c 5d3e bdcb 08be 8477 123e
00000340: b11e 6a3e 83dc d13d a6a7 a8be f298 903e
00000350: a08e 0cbe 3cd7 56be 5695 2e3e c7a8 7fbd
00000360: c285 6e3c e682 673e 1386 04be acd0 2b3e
00000370: ed49 5d3e 0a3a b83d b704 a3be bd11 963e
00000380: 1d34 0abe c94a 55be e451 073e 7504 93bd
00000390: 4056 bd3b d7f2 533e f7db e3bd cb40 3c3e
000003a0: 3eb6 453e 9e29 bf3d 842c 9ebe c147 8d3e
000003b0: 90ff f9bd 7a4d 50be db66 b13d 2943 61bd
000003c0: bf34 463d e704 493e 675b d4bd dc2a 2d3e
000003d0: 48e2 253e 03eb a03d 72c0 97be 074d 7c3e
000003e0: d4a0 ffbd db4f 42be 3553 603d cbf3 85bd
000003f0: ff78 a13d 6d5d 413e 46ff cebd e0fa 303e
