results/raw_openmiir_e2e_simpleconv_ep100/mlp_fold_2_weights.npy (npy, 844400 bytes, 1 tensors)

array f4 [5, 3518, 12]
000000 a8 cc b1 3a aa c9 5e 3b 85 f1 45 3c 3f 12 06 bd
       0.0013565021 0.0033994713 0.0120815085 -0.032732245
000010 0b 8e ca 3c 2e c5 60 3d 70 64 3c 3d 41 12 1c bd
       0.024725934 0.054875545 0.045994222 -0.038103346
000020 75 15 a5 3c 12 77 b2 bc a4 43 16 3c cd 68 ab 3b
       0.020151833 -0.021785293 0.0091714 0.005230999
000030 fc 87 6b bc 77 1a 93 ba 4a 98 39 bb 6f 09 dd bc
       -0.014375683 -0.0011223097 -0.002831953 -0.026982037
000040 0c 3f 36 b9 b7 ba 44 3d 06 bc 8a 3d 2a c1 e0 bc
       -0.0001738036 0.048029628 0.06774144 -0.027435858
000050 2c fa cc 3c 1d fa 42 bd 17 cf ab 3c 4e 79 d3 bb
       0.025021635 -0.047601808 0.020972772 -0.0064536696
000060 a5 09 9c bc 7f a8 9f ba 0e a3 f2 3b 89 bb 10 bd
       -0.019047568 -0.0012180953 0.0074046915 -0.035335097
000070 60 22 bc 3c 53 5e 3a 3d a0 10 6b 3d 68 3d c0 bc
       0.02296561 0.04550011 0.0573889 -0.02346678
000080 e3 81 18 3d 4c b6 c8 bc bf 52 02 3b 73 a3 d4 bb
       0.037233245 -0.024500988 0.0019885746 -0.006489211
000090 97 53 08 3c b9 14 51 3c 01 2e 86 3a 08 53 53 bd
       0.008320711 0.012761288 0.0010237099 -0.051592857
0000a0 40 99 24 3d cb 18 74 3d 27 3f 3e 3d a6 ae 7f bc
       0.040185213 0.059593957 0.046446946 -0.015605604
0000b0 79 f9 d6 3c e7 1a 2f bd f1 de 16 bc 6d b7 97 bc
       0.026242005 -0.042750265 -0.009208427 -0.018520081
0000c0 ee 7b 25 bb 00 78 57 3c d3 ef 96 bc 12 07 80 bd
       -0.002525087 0.013151169 -0.018424904 -0.062513486
0000d0 df f9 20 3d e1 3f 14 3d d3 6f 8f 3d dd cc 66 bc
       0.039300796 0.036193732 0.07003751 -0.014086929
0000e0 3f aa eb 3c 52 b1 37 bd ed 4d 96 3c 79 5f 38 bb
       0.028767703 -0.04484684 0.018347705 -0.0028133078
0000f0 d7 eb 79 3c 49 2b 86 bb f9 81 13 bd e7 5e 4b bd
       0.0152539825 -0.0040945155 -0.036012623 -0.049651053
000100 41 0d d6 3c 56 72 1c 3d f3 c3 1b 3d 26 72 9c bc
       0.026129367 0.038194977 0.03802867 -0.019097399
000110 bc ed 24 3d 16 0f 0e bd 77 14 84 3b a6 32 0e 3c
       0.040265784 -0.034682356 0.00403076 0.008679068
000120 b2 ea 76 3a 19 07 ed 3b 57 2f 0a bd 15 3a 2e bd
       0.00094191276 0.007233512 -0.033736553 -0.04253586
000130 7f 8e 0d 3d 15 4b 1b 3c a6 e7 7e 3d 46 29 e4 bb
       0.034559723 0.00947835 0.062232636 -0.006962928
000140 88 af 75 3d fe 77 08 bd c5 6f 63 3a c3 9d 95 3b
       0.059981853 -0.03331756 0.0008676018 0.004565926
000150 34 0c 4d 3b 37 67 e9 3a 0a 5d ef bc 39 19 4e bd
       0.0031287791 0.001780725 -0.02921917 -0.050317023
000160 f2 60 f7 3c ef fd 64 3b 69 cb 06 3d 2a 24 c5 bc
       0.030197594 0.0034941395 0.03290883 -0.024065096
000170 82 47 80 3d c0 7e eb bc 99 75 09 3c c3 c8 83 bc
       0.06263639 -0.028746963 0.008389854 -0.016086942
000180 f8 61 a4 bc 2b ac f9 3b 3a 10 26 bd e7 3f 8a bd
       -0.020066246 0.007619401 -0.04054282 -0.0675047
000190 7e 06 5f 3d 45 3e 16 3c b0 f6 ce 3c 5c b6 d4 bc
       0.05444955 0.00917012 0.025264114 -0.025965862
0001a0 a6 71 8f 3d 7e e3 a4 bb e9 80 0e bc 20 c5 e9 3b
       0.070040986 -0.005032002 -0.008697727 0.007134095
0001b0 aa 24 9b ba c5 76 e6 3c 15 b5 62 bd 1e 2e 57 bd
       -0.0011836488 0.028132806 -0.055348475 -0.052534215
0001c0 8c 90 4e 3d bc 4c 46 bb 9c be be 3b 66 e4 9e bc
       0.05043082 -0.003025814 0.0058210623 -0.019396018
0001d0 e1 f3 97 3d 9f 53 5c 3b 59 d0 86 3c d4 d9 dc 3b
       0.07419563 0.0033619178 0.01645677 0.0067398343
0001e0 60 39 ab bc a1 f3 0d 3d 8d 5e 15 bd 03 cb 4f bd
       -0.020901382 0.03465617 -0.036467124 -0.050730716
0001f0 f6 da 4f 3d f3 d5 b3 bc f4 77 8c ba b2 f2 11 bc
       0.050745927 -0.021952605 -0.0010716901 -0.008907961
000200 9c 5a b0 3d 78 86 d0 bb 21 cd 50 3b 6b ec 3a 3c
       0.08611032 -0.006363686 0.0031860548 0.0114089055
000210 67 bf 13 3b 3a b9 8c 3c dc 98 d3 bc 57 f0 2f bd
       0.0022544505 0.017178167 -0.025829725 -0.042953815
000220 36 98 5f 3d 51 62 00 3a 08 85 6d 3c 0f 47 08 bd
       0.05458852 0.0004897463 0.014497049 -0.03327089
000230 91 f4 b8 3d 8e f6 c9 3b 9a b9 b4 3c d5 1d cd 3c
       0.09031022 0.006163425 0.022061158 0.02503864
000240 5f c7 c7 bc 0b 0f 83 3c 6f 36 a5 bc a8 d8 8a bd
       -0.02438706 0.015998384 -0.020167558 -0.06779605
000250 bc 18 41 3d 56 4e ab bc 8e 98 f3 bb d0 bd de bc
       0.04714273 -0.020911377 -0.0074339574 -0.027190119
000260 52 7a 81 3d 02 ab 10 3d ca 15 57 3c df 07 84 3b
       0.06322159 0.035319336 0.0131277535 0.0040292586
000270 2f 38 34 bc a4 04 fc 3c c8 68 21 bd 10 7c 40 bd
       -0.010999723 0.030763932 -0.039406568 -0.046993315
000280 0d 80 21 3d d3 ea 82 bc e2 0f 35 bc 26 be e6 bc
       0.03942876 -0.015981114 -0.01105115 -0.028166842
000290 f4 65 99 3d fd 0b 13 3d c4 7e 66 3b 08 3d f8 3c
       0.07490149 0.035900105 0.0035170773 0.03030254
0002a0 9b 46 82 bc ce ee 66 3c 96 ca 18 bd 75 97 0c bd
       -0.015902808 0.014095021 -0.037302576 -0.03432413
0002b0 7f f6 eb 3b 83 38 1c bc ce c0 12 3c 03 c7 0b bd
       0.0072010155 -0.009534958 0.008957101 -0.03412534
0002c0 13 e6 7a 3d 67 22 40 3d ab 5b 6f 3c fe c3 82 3b
       0.061254572 0.04690781 0.014609258 0.0039906492
0002d0 b8 8e e1 bb 44 a9 da 3c f6 f4 d2 bc e8 85 13 bd
       -0.0068834685 0.02669204 -0.025751572 -0.036016375
0002e0 ff c7 dc 3a cf 28 8e bc 31 1a b6 bc a1 06 b5 bc
       0.0016844271 -0.017353443 -0.022229286 -0.022097887
0002f0 4e ba b2 3d 26 f3 18 3d 9b 6f 0c 3d 09 d0 05 3d
       0.08726941 0.03734126 0.034286123 0.0326691
000300 7f ce 92 bc 45 bd c7 bb 9e d7 64 bc 2a f7 52 bd
       -0.01792073 -0.0060955607 -0.013967423 -0.051505245
000310 fb d2 97 3c 84 b9 0f 3b 7f 07 53 bc 03 3e db bc
       0.01853322 0.0021930644 -0.012880205 -0.026762968
000320 1e a9 9d 3d e7 cc 29 3d 08 19 84 3c 85 7f d1 3b
       0.07698272 0.041455176 0.016125217 0.0063933753
000330 64 f1 de b9 7f b3 2b ba 37 99 b9 bc ea 50 4a bd
       -0.0004252299 -0.00065498793 -0.022656066 -0.049393572
000340 3f de 19 bb fe 90 ed ba 4c 80 70 bb d2 e9 8a bc
       -0.0023478416 -0.0018124876 -0.0036697565 -0.016957197
000350 90 9d a1 3d 3b 24 57 3c ff 08 9d 3c c2 22 9b 3c
       0.07891381 0.013131197 0.019169329 0.018937472
000360 6f 3f d5 bc a3 8c 97 bc d4 e6 41 bc f8 cc 83 bc
       -0.026031224 -0.018499678 -0.011834819 -0.016088948
000370 14 40 11 3c c9 de a3 bb 2a 48 0b bc 71 cc 21 bd
       0.008865375 -0.0050009233 -0.008501092 -0.03950161
000380 d8 71 82 3d 1d fc a5 3c 86 ad 01 3d b7 76 70 3b
       0.0636937 0.020261819 0.031659625 0.0036691853
000390 93 cd 96 bc 96 b5 76 bc a2 b4 49 bc 38 00 18 bd
       -0.018408572 -0.015057942 -0.012311133 -0.037109584
0003a0 a8 ae d9 bc a2 a0 9e 3b 6d 3a 79 3a d8 74 6a bb
       -0.02657254 0.0048409263 0.00095073023 -0.003577521
0003b0 15 2a 01 3d 76 1c ba 3c 4e 38 98 3c 50 2b 59 3c
       0.031534273 0.02271865 0.018581536 0.013254955
0003c0 f9 70 04 bd 8d 90 01 3c 61 9b 7c 3b c4 72 93 bb
       -0.0323343 0.007907999 0.0038544761 -0.004499765
0003d0 74 41 8a bc e5 9e 19 b9 94 6a 58 3b dd fd d8 bc
       -0.016876914 -0.0001465041 0.003302251 -0.026488239
0003e0 34 46 dc 3c 39 94 99 3c b6 62 07 3d 25 e7 a2 3c
       0.026888944 0.018747436 0.033053122 0.019885609
0003f0 c0 85 b2 bc 7d be c5 bc 60 24 fe 3b c9 61 ca bc
       -0.021792293 -0.024138683 0.007755801 -0.02470483
