results/raw_openmiir_e2e_simpleconv_ep100/mlp_fold_5_weights.npy (npy, 844400 bytes, 1 tensors)

array f4 [5, 3518, 12]
00000000: a44c b03c 09a8 20bc f837 433b a439 c93b
00000010: 77ac 283b 1614 afbc 3c4c 61bc fc0c 03bc
00000020: 0e92 a43c 9c43 0a3d 7e32 e0bc 3d7b b8bc
00000030: 5ced 26bc 2b69 9abc a85b fbbb baa8 623c
00000040: 1e49 39bc 1ea9 36bd d007 3dbc 982c 8cb9
00000050: 7e17 be3b f26f da3c 4cab ceba a4a1 87bc
00000060: e7f7 f53b 44a0 5dbc cc1d 85bb a289 18bb
00000070: 1686 183c a126 29bd df20 b6bc 2afd 993b
00000080: 3227 333c 2f03 2d3d ef9a d5bb c47a 9dbb
00000090: 2871 533b 4469 17bc a131 95bb 702e b2b9
000000a0: 818b 2d3b f772 0cbd 9176 d3bc ee6c cd3b
000000b0: 1416 f63b ad61 163d 30d6 75bc d904 993b
000000c0: cd1f 8abb 8cc7 dbbb e1a6 023b b82e 013d
000000d0: a90b 053c 0af2 dbbc ce68 49bb 6e82 7d3c
000000e0: a965 803c d16a 443c f4b6 b5bc b1aa b03c
000000f0: 8dbd 70bc daf2 adbb c9ad 3d3c 799a 073c
00000100: 3a04 a1bc 2703 22bd 682a cabc 83b2 fdbb
00000110: 54c8 49bc 906d f13c 8c6b a5b9 9377 8c3c
00000120: 44a1 8dbc 7463 97bc 0ade d63c 3cea 943c
00000130: 7afd a8bc 43e4 acbc fdac d3bc 05c1 f2ba
00000140: bda8 5ebc cb62 843c 00cb 7abc 5a3a 2f3c
00000150: e26d 58ba 3fa1 10bb 15a5 3b3c 117c 973c
00000160: e167 c3bc e073 8dbc 2c2e 95bc c75e 353b
00000170: c09c 8dba 44cc d33c 358b 7dbb 0b48 53bc
00000180: 2478 ebbc 7a0e e0bc 161f db3c 2843 e03c
00000190: f715 10bd 4298 f7bc 96ea 9ebc 7de7 883a
000001a0: b371 87bc 856b 293d e09b 84bc f63e 0c3c
000001b0: 7944 a4bb a7a0 f6bc dc3b eb3c 658a e33b
000001c0: 966c 0cbd df7b f6ba f990 3bbb 8031 7e3c
000001d0: fee6 78bc 7eb9 e83b 5839 063c 0656 82bb
000001e0: f584 99bc b95a f4bc 7089 7a3c d770 023d
000001f0: 90c2 a2bc 0a64 8dbc 4c23 2cbc 59e3 fa3a
00000200: eb22 8cbc 11b9 973c 4861 ab3b f0f4 8a3c
00000210: a0ff 07bd 1abe 77bc fe40 893c 004c 1d3d
00000220: ef94 fbbc fcf8 f33b 4ac9 8fbc dd8b 9b3b
00000230: 02f1 07bd e815 b93c 7a28 86bc ab48 023b
00000240: 613e b7bb 0a42 39bc 8e08 333d 3d9e e93c
00000250: 3f1d 89bc c84a 91bc 6873 4a3b d7b1 963c
00000260: a2a2 09bc d6e0 e23c 51bb 7e3b 1cd2 51bc
00000270: 6685 b9bc e304 ecbc 5188 973c c9fa 213c
00000280: 45e1 cebb 91a2 883c 30e9 69bc a0c7 9abb
00000290: 2281 8dbc f278 2f3c f0c9 983c 064d 43bc
000002a0: ccda 8ebc a283 26bc dcb2 a13c dda2 853c
000002b0: 78c0 65bc 64e1 523c 8ac6 5d3c ff9b d13c
000002c0: b386 6ebc 515d d83a a3a3 35bc 3c73 6db9
000002d0: eb7c 74bc e9d8 323c d275 b03c 15ce 963c
000002e0: 1786 18bc 7163 d3bb a69e 05bc ebdf e03b
000002f0: 3341 10bd c715 be3c 00af 00bc 7b0f 4b3c
00000300: 5e70 eabc cb1d 053c 7695 613c 8360 ce3c
00000310: 2905 5a3c 4ab5 8f3c c230 0a3b 5f19 a43c
00000320: f110 d0bc 667f c3bb 623e e0bb 8d80 503c
00000330: 4afa 13bd 3f0d 323c 6656 833c aefd ec3c
00000340: 726e 3b3c cf74 2a3c 9780 26bc 9c28 e43b
00000350: 0e0b febc 32ba 82ba fcb1 05bc ded8 6b3b
00000360: 0878 11bd 51d6 a83c 2af9 0c3d 996a 8f3c
00000370: 4372 4fbc 154b bcbb 47e3 62bc b222 7e3b
00000380: 59ab 04bc 1a4e a43c 9c4e 18bc edf9 5f3c
00000390: cfc4 fabc c7ea 7bbb 779f f53c bfcb 69bb
000003a0: a6bf 823b d2f1 2abb ee7f 0e3c 0c33 223c
000003b0: 6a4d c1bc 420b 373c 1c63 94bc 307f 64bc
000003c0: 8836 57bc 89b6 e73c 0a77 463c 518d b3bb
000003d0: 3245 d6bb 06f3 ab3b 04f0 aa3b 2f13 a33c
000003e0: 2f90 e5bb 0856 3b3c 5a11 093c 0fe3 4bbc
000003f0: 26e3 26bd 1a41 f43b 2a3b 0a3b 6b09 beba
0.02152092 -0.009805688 0.0029787999 0.0061409045 0.0025737563 -0.021371882 -0.013751086 -0.007998701
0.020089176 0.033755884 -0.027367827 -0.022519702 -0.010188427 -0.018848976 -0.0076708384 0.013834173
-0.011308936 -0.044594876 -0.011537507 -0.00026736106 0.0058011403 0.026664708 -0.0015767603 -0.016556568
0.007506359 -0.01352698 -0.00406239 -0.0023275395 0.009309312 -0.041296605 -0.022232471 0.004699369
0.010934638 0.042239364 -0.0065187137 -0.0048058946 0.0032263491 -0.009241406 -0.0045530354 -0.00033985404
0.0026480856 -0.034289327 -0.025813373 0.006269089 0.007509956 0.036714245 -0.01500468 0.0046697673
-0.0042152167 -0.0067071375 0.0019935893 0.031538695 0.008120456 -0.026848812 -0.0030732634 0.015472991
0.015673475 0.011988358 -0.022181965 0.021565767 -0.01469363 -0.005308491 0.011577078 0.008276575
-0.019655336 -0.039553788 -0.024678424 -0.0077422275 -0.012315828 0.029471189 -0.0003155138 0.017146861
-0.017288812 -0.01848004 0.026228923 0.018178098 -0.02062868 -0.021104937 -0.025839323 -0.0018520659
-0.013590035 0.01616039 -0.015307188 0.010695064 -0.000825612 -0.0022068766 0.011452933 0.018491777
-0.023853244 -0.017267168 -0.018210493 0.00276749 -0.0010804161 0.025854237 -0.003868771 -0.012895594
-0.028743811 -0.027350653 0.026748221 0.027375773 -0.035177197 -0.03022397 -0.019398969 0.0010444965
-0.016533708 0.041362304 -0.016187608 0.008559933 -0.0050130454 -0.030105902 0.028715067 0.006943988
-0.034283243 -0.0018805227 -0.0028620346 0.015514731 -0.015191792 0.0071021905 0.008192383 -0.00397754
-0.018740157 -0.029828416 0.015291557 0.031845894 -0.019868165 -0.017259616 -0.010506462 0.0019141241
-0.017106494 0.018520864 0.0052301027 0.016962498 -0.033202767 -0.015121007 0.016754624 0.038402557
-0.030710666 0.0074454527 -0.017552037 0.0047468976 -0.033188827 0.022593454 -0.016376723 0.001987974
-0.005592153 -0.011307249 0.04370933 0.028517837 -0.016737578 -0.017735854 0.0030891541 0.018395348
-0.008400591 0.0276951 0.0038868973 -0.012806442 -0.022646617 -0.028810924 0.018497618 0.009886452
-0.0063134753 0.01667908 -0.014276788 -0.004723504 -0.01727349 0.010709988 0.018650979 -0.011920219
-0.017438315 -0.01016322 0.019738607 0.01631301 -0.014022939 0.01287112 0.013536105 0.02558708
-0.014558482 0.0016507303 -0.011086377 -0.0002264501 -0.014922361 0.010915973 0.021540556 0.018408814
-0.009309313 -0.0064510633 -0.0081555005 0.0068626306 -0.03521843 0.023203744 -0.007854223 0.012393828
-0.028618034 0.008124779 0.013768544 0.025192505 0.013306894 0.0175425 0.002108619 0.02003163
-0.025398703 -0.005966115 -0.006843374 0.012725961 -0.036127366 0.010867416 0.016032409 0.028929558
0.011439906 0.010403826 -0.010162494 0.006962849 -0.03101113 -0.0009973703 -0.008160111 0.0035987417
-0.03551486 0.020610007 0.03441731 0.017506884 -0.012661519 -0.005746255 -0.013848132 0.0038778004
-0.008097493 0.020056773 -0.009296086 0.013670427 -0.030611424 -0.0038439499 0.029983265 -0.003567442
0.0039901314 -0.0026084078 0.008697493 0.009899866 -0.023596484 0.011172118 -0.018113665 -0.0139463395
-0.01313556 0.028285282 0.012113342 -0.0054794927 -0.0065390104 0.0052474765 0.0052166004 0.019906608
-0.0070057134 0.011434086 0.008365953 -0.012444272 -0.04074397 0.00745405 0.0021092393 -0.0014498656
