results/raw_openmiir_e2e_simpleconv_ep100/mlp_fold_4_weights.npy (npy, 844400 bytes, 1 tensors)

array f4 [5, 3518, 12]
000000 8d 25 a1 3c d0 cb 63 3a 99 7d 02 3c 4c ef 0e bc
       0.019671226 0.0008689733 0.007964515 -0.008724045
000010 91 28 46 bc 99 28 f9 3a 5c 6a 3f bc 25 4b 12 3b
       -0.012094633 0.0019009291 -0.011683073 0.0022322622
000020 1b dd 47 ba 00 bd b7 bc 78 2c 10 3c bc 89 ab ba
       -0.0007624195 -0.02242899 0.008799665 -0.0013087313
000030 da 24 fc bb bb d8 81 bc 6c fe 4c bc d1 c6 32 bc
       -0.0076948227 -0.015850415 -0.012511831 -0.010911659
000040 b3 02 53 3b b3 0d e5 3c 01 7c 0b bc 3e de ad 3c
       0.0032197654 0.027960634 -0.008513452 0.021224137
000050 05 d1 89 bb f7 c8 89 bc 74 f2 74 bb a6 78 9a ba
       -0.0042058253 -0.01681946 -0.0037375959 -0.0011785224
000060 2a 7c 5a bb c6 45 9c bc f3 30 a0 3b 74 fc 89 bc
       -0.0033338168 -0.01907624 0.0048886477 -0.016844012
000070 96 37 a4 bc ca fd 12 3c 8d 05 a5 3c 6f d9 a9 3c
       -0.020046037 0.008971641 0.020144248 0.020733563
000080 f6 dd 38 3b 6b 5c 9b bc fd 6c 6f 3c 71 1e 95 bc
       0.002820847 -0.018964967 0.014613387 -0.018202992
000090 73 4d 69 3c a0 63 af 3b a9 fd d3 bc 36 78 61 3b
       0.014239657 0.0053524524 -0.02587779 0.0034403927
0000a0 51 84 b4 bb 08 44 b5 3c 0a 08 1a bc a2 77 97 3c
       -0.0055089374 0.022127166 -0.009401331 0.018489663
0000b0 a3 6f 5c 3c be e3 fd bb 95 26 00 3c 15 9f d3 bb
       0.013454351 -0.0077480962 0.007821699 -0.006458173
0000c0 f8 bc 8c 3b e2 93 c0 ba 66 7c 85 bc d9 6c a9 bc
       0.004294988 -0.001469251 -0.01629467 -0.020681785
0000d0 24 26 5a 3c 34 7b d6 3c 9d c3 e1 3b fe 46 91 3c
       0.0133147575 0.026181795 0.006889774 0.017734047
0000e0 1b 4a 38 bb 3c 00 6e bb 73 15 ca bb f6 f6 81 bc
       -0.0028120342 -0.0036316058 -0.0061671077 -0.01586483
0000f0 34 2a c4 3c fe bd e1 38 9f 97 0d bd fe b3 a8 bb
       0.023945905 0.00010764225 -0.034568425 -0.00514841
000100 8b 9a 83 3c c1 0f 21 3c 1e a1 36 3b 61 54 2c 3c
       0.016064903 0.009830416 0.002786703 0.010518164
000110 7d 20 a3 3c e6 43 08 bc c0 a4 cd 3b 16 9c 87 bc
       0.019912953 -0.0083169695 0.0062757432 -0.01655392
000120 72 6e 52 bb 65 ff f4 bb 57 8d a3 bc 7c b7 b5 bc
       -0.0032109288 -0.0074767345 -0.019964857 -0.022182219
000130 c1 49 3d 3c 7a 7c 81 3c 4c 71 51 bc 10 af 5c bb
       0.011553229 0.015806425 -0.01278336 -0.0033673681
000140 30 8a 9c 3c fa db 71 3b 70 52 86 bb 0c dc 1b bc
       0.019108862 0.0036904798 -0.004099183 -0.0095129125
000150 e6 5c 1a 3b f4 38 81 3c 66 3f ca bb a1 81 f4 bc
       0.0023553907 0.015774228 -0.0061721085 -0.029846968
000160 87 9b 07 bc b2 cf 17 bc 90 bf 0a bc 5b 50 c8 b9
       -0.008276827 -0.009265827 -0.008468524 -0.00038206842
000170 07 ed d1 3c d3 b7 34 bc d7 4e c3 3b df aa 55 3b
       0.025625719 -0.011030155 0.005960326 0.0032603068
000180 11 8f 65 3c 72 ac 1e bc de 08 9c bc 43 2c dc bc
       0.0140111605 -0.009684669 -0.019047197 -0.026876574
000190 e9 56 de 3c 1f 39 1b 3c cc 34 eb ba 4f 6f 7e 3c
       0.027141051 0.009474068 -0.0017944812 0.015529468
0001a0 d9 df 6b 3b e5 eb a2 3b 82 74 f1 bb e5 57 fb bb
       0.0035991578 0.0049719685 -0.007368625 -0.00767039
0001b0 b6 0b 03 3d 51 6a 81 3c 12 6d 19 bd ff 91 2e bb
       0.03199359 0.015797766 -0.037457533 -0.0026637313
0001c0 ee 9f 4d 3c ec c9 06 3c 2a db 52 bc 71 14 15 3b
       0.012550337 0.008226853 -0.012869636 0.002274778
0001d0 05 14 bd 3c 46 5a 99 bb f1 dc ee 3b c8 98 ab 3a
       0.023080835 -0.004679951 0.007289522 0.0013091797
0001e0 6e 33 a5 3b cd 93 92 3c 58 97 a5 bc 7a 07 88 bc
       0.0050415313 0.017892743 -0.020213768 -0.016605128
0001f0 2b 13 a1 3c 92 19 31 bc cd b1 18 bc e0 a5 80 3c
       0.01966246 -0.010809319 -0.009319735 0.015704095
000200 cf c5 ec 3c b5 7a d2 ba 47 46 4e bc 12 63 76 3c
       0.028902916 -0.0016058298 -0.012589998 0.015038269
000210 b1 46 94 3c e5 fb 92 3c b7 57 bf b9 a4 7b fc bc
       0.018100115 0.017942378 -0.00036495712 -0.030820675
000220 a7 15 12 ba b2 32 ea 3a 23 8f bd ba 86 69 b7 ba
       -0.00055726845 0.0017867892 -0.0014462214 -0.001399324
000230 61 12 da 3a bc b9 0e 3c 8b e2 02 3b af 16 53 bb
       0.0016637557 0.008711275 0.0019971456 -0.0032209565
000240 ae 3e e5 3b 30 d7 4b bb cb ad e8 bb 8a 4c 0f bd
       0.0069959974 -0.0031103604 -0.007100796 -0.034985103
000250 d5 08 70 ba c3 2e 4a 39 94 7c a1 ba fc c8 9e 3b
       -0.00091565895 0.00019281641 -0.0012320452 0.0048457365
000260 6f c1 01 3d 90 cf cf 3b a6 3c 87 b9 cd c8 52 bc
       0.031678613 0.006341882 -0.00025794393 -0.012865257
000270 dd 62 9d 3c 3b 78 2e 3c cb 10 1c bc 31 14 27 bc
       0.01921218 0.010648782 -0.009525488 -0.010197685
000280 ea c7 1b bb 5d 72 0f bb 65 9f 0e bc 1e 0b 31 3c
       -0.002377028 -0.0021888234 -0.008704995 0.010805873
000290 79 72 09 3c 44 fa 6f bb f2 14 7c 3b e2 af 40 bc
       0.008389109 -0.0036617676 0.0038464633 -0.011760684
0002a0 5b 6a 25 3b da f7 c9 bb 9a 2e 7c 3a 1d 04 2c bc
       0.0025240395 -0.0061635794 0.0009619981 -0.010499028
0002b0 3a 90 ae bb b8 44 b8 3b 41 c9 a2 bc b2 f0 2e bc
       -0.0053272517 0.0056234263 -0.019871356 -0.010677503
0002c0 51 93 ca 3c 88 a4 c4 bb fa 13 e9 bb 97 d7 13 3c
       0.024728449 -0.006001059 -0.007112977 0.009023569
0002d0 7b 9b 7d 3c e4 86 72 bb fe 7f 54 bc d4 c3 e8 bc
       0.015478964 -0.003700667 -0.012969969 -0.02841369
0002e0 cd e9 ca bb 80 88 27 3c 5b fc 09 bc fd 1a 00 3b
       -0.006192422 0.010225415 -0.008421983 0.0019547336
0002f0 87 c2 e7 3c 97 63 8c 3c c0 db 90 bc ea ee 15 bc
       0.028291 0.017137332 -0.01768291 -0.0091512
000300 f1 27 99 3c 0b a1 d2 bc a0 7f ce 3b 52 ba 23 bc
       0.018695803 -0.025711557 0.006301835 -0.009993153
000310 68 7f f9 3b f5 c8 e1 bb 01 3c 8e 3b f3 21 ae 3b
       0.007614065 -0.006890411 0.004340649 0.0053141057
000320 df aa 44 3c 06 cc a2 3c 4e 89 5e bb aa 79 f1 bb
       0.0120036295 0.019872677 -0.0033956352 -0.00736924
000330 cc d7 b9 3c 7b 3f 58 bc 71 62 ae bb c5 52 8c ba
       0.022685908 -0.013198729 -0.0053217937 -0.001070582
000340 7d bc a0 bb 19 76 9f 3b 20 e1 57 bc da 68 9b bc
       -0.004905282 0.0048663733 -0.013176233 -0.018970896
000350 d6 a7 2a 3c 2b be 53 3c 08 1d 61 bb 58 f1 74 3c
       0.010415992 0.012923758 -0.003434958 0.014950119
000360 bd c9 86 3c 39 d3 a6 ba 93 e5 af 3b 0d 9b 40 bc
       0.016453618 -0.0012727744 0.0053679436 -0.011755717
000370 bd 25 87 bc c2 db 8d bb 6c 90 42 3c 9c b5 05 bb
       -0.016497487 -0.0043291757 0.011875253 -0.0020402437
000380 b9 d2 c7 3b 81 46 60 3c d0 d3 e7 ba c1 db 72 3c
       0.006098118 0.013688684 -0.0017687026 0.014822901
000390 b8 5e 37 bc 99 5f 83 bc 6e 36 70 bc c3 f7 d8 39
       -0.011192016 -0.016036795 -0.014661415 0.00041383327
0003a0 08 8d 0c bc 5d e7 af 3b 42 25 a4 3c 21 39 d7 bc
       -0.008578546 0.005368157 0.020037297 -0.026272358
0003b0 8c 22 e0 3c b7 4e 67 bc 07 7a 19 bc 82 a9 fb 3b
       0.027360223 -0.014117888 -0.0093674725 0.007680119
0003c0 7a bd 3a bc ad 34 cb bb 71 8b 9f bb 7e ac c9 38
       -0.011397714 -0.006201348 -0.0048689176 9.616556e-05
0003d0 2c c0 50 3c 80 64 76 3c c4 d7 e2 bb c4 8c d9 bc
       0.01274113 0.0150386095 -0.006922694 -0.02655638
0003e0 f8 85 fc 3b 38 a6 7b 3c 06 eb bb 3a 64 df 4e 3c
       0.0077064 0.015359454 0.001433701 0.012626503
0003f0 3d bc 68 3b 7d 89 3e bc 8a f0 8d 3b f0 fb ae bb
       0.003551259 -0.011629459 0.004331653 -0.005340092
