results/raw_openmiir_e2e_simpleconv_ep100/mlp_fold_3_weights.npy (npy, 844400 bytes, 1 tensors)

array f4 [5, 3518, 12]
0.004625894 0.006071651 -0.008913542 0.0052723745 0.006386537 0.010772057 0.0069583575 0.0024161623
0.013967154 -0.0005228348 0.017898314 0.00032539558 0.0039645745 -0.00885922 -0.0050743963 0.0035527057
-0.00248589 0.0035469078 0.002274355 0.018109096 0.02149048 -0.023762822 -0.008985448 0.0063372524
-0.016862052 -0.018251354 0.0041055772 -0.012824963 0.013741329 -0.0041238414 0.011467227 0.004391853
-0.001958937 0.007373979 0.0067364597 -0.020823793 0.010557202 -0.0023262443 -0.0044520632 -0.01308339
-0.0042817183 0.012580904 0.008516998 -0.0060641216 0.006594704 -0.0038788295 0.0056591476 -0.010081971
0.00737846 -0.01423761 -0.0033218362 -0.015399245 0.009301179 0.009677799 0.002835548 0.019018084
0.018768353 -0.0021047352 -0.0046971985 0.0039325175 -0.00088170695 0.00914018 -0.010569169 -0.0023056134
-0.010051383 0.006685112 -0.011853603 -0.00048806288 0.009447061 -0.006714675 0.009964386 -0.0034328515
-0.0023359996 0.0028241263 0.013154514 -0.015746363 0.0040272838 0.014736368 -0.011170163 -0.007916692
-0.011722038 0.007148805 -0.0020553449 -0.010989473 7.2990774e-06 -0.014468139 0.005870331 -0.0019902303
0.007168446 -0.0065628476 -0.0035867288 -0.0069963657 0.00069761544 -0.007958084 -0.006575547 -0.017205536
-0.0009979106 0.015180337 -0.006209274 -0.020106286 -0.0015231605 0.015337111 -0.0063642836 0.015897086
-0.010962073 -0.01551795 0.012583532 0.0019950904 0.013568675 0.014819278 -0.020875718 0.00727373
0.00095534185 -0.010334329 0.002899991 0.017330803 -0.008757581 0.007786344 0.019024812 -0.0018943379
-0.0014109435 0.015156965 -0.013067801 0.003143163 0.008780643 0.009622555 0.0053802 -0.00063278765
0.021259509 0.00042931872 0.00039939917 -0.016260037 0.011688382 0.0023193704 0.01125439 -0.0029166045
0.013411648 0.020155441 0.008648293 0.0081805 0.0053677345 -0.0104904855 -0.008513553 -0.006459203
0.010624341 0.0014082186 -0.019168368 0.0015590377 0.010203677 3.4132278e-05 -0.014231659 0.014079596
-0.008237739 -0.014781563 0.0212903 0.004776814 -0.017339282 0.01879439 -0.009067942 -0.014626929
0.018738281 0.017304936 0.008294961 0.010512927 -0.00702517 -0.0076398393 0.011113945 -0.01929645
0.013339079 0.016417539 -0.015686456 0.0028352414 -0.0054299776 -0.008426161 0.0031507574 -0.0009617892
0.019662207 0.012104521 0.022255559 -0.01944314 -0.017994834 0.017766258 -0.008138696 -0.018939637
-0.013044511 0.016618988 -0.005564952 0.00949044 0.014021438 -0.0047435127 0.0050658877 -0.002658923
-0.0054883226 0.004420331 0.0048677702 0.00800793 -0.009137176 -0.0034995393 0.00063990324 -0.0008959898
0.015254856 -0.015262979 0.021388832 -0.016097467 -0.009075023 0.009819493 -0.001667904 -0.020244712
-0.014050545 -0.007936952 -0.013442792 -0.0049925726 -0.01170172 -0.000891438 0.0001181233 0.0073163384
0.0041527394 -0.002805483 0.00022465969 -0.012120573 0.011932711 0.0029676268 -0.0074891364 -0.0027538019
0.0036438196 0.0056601837 0.013280304 -0.013871772 0.0073949946 0.017678084 0.006471891 -0.0042849663
0.0050257538 -0.0038553732 0.00442247 0.015920535 -0.005146127 -0.00974397 0.0018825032 -0.011592229
0.013159254 0.0014650535 0.010886941 0.007505328 -0.0037836093 -0.00911155 -0.0083549395 -0.008949899
0.0049658422 -0.012522992 0.016937109 0.009456727 -0.018782718 -0.0035187753 -0.017323934 -0.00036339683
00000000: d094 973b b3f4 c63b 1b0a 12bc e2c3 ac3b
00000010: 2846 d13b 487d 303c ef02 e43b 7a58 1e3b
00000020: 7dd6 643c d90e 09ba 7c9f 923c db99 aa39
00000030: 43e9 813b 4326 11bc 1f47 a6bb 83d4 683b
00000040: 50ea 22bb 3d73 683b 580d 153b 8759 943c
00000050: ce0c b03c 40aa c2bc b337 13bc baa8 cf3b
00000060: 4922 8abc dd83 95bc 1488 863b cb1f 52bc
00000070: 5023 613c 4a21 87bb 09e1 3b3c 89e9 8f3b
00000080: 8261 00bb 6ba1 f13b 85bd dc3b a996 aabc
00000090: 1df8 2c3c e773 18bb 9de2 91bb b75b 56bc
000000a0: a84d 8cbb 2320 4e3c e18a 0b3c 8ab5 c6bb
000000b0: 6318 d83b f633 7ebb 5f70 b93b da2e 25bc
000000c0: 02c7 f13b dd44 69bc 2ab3 59bb 1d4d 7cbc
000000d0: f963 183c a28f 1e3c 9ad4 393b d0cb 9b3c
000000e0: 17c0 993c 99ef 09bb f5ea 99bb 59dc 803b
000000f0: 5a22 67ba b2c0 153c 4f2a 2dbc c619 17bb
00000100: 8eae 24bc c90e db3b 9d35 42bc b1e2 ffb9
00000110: d9c7 1a3c c706 dcbb aa41 233c b1f9 60bb
00000120: 9217 19bb fa14 393b 0886 573c 84fe 80bc
00000130: 4ef7 833b cf70 713c 0f03 37bc 03b5 01bc
00000140: ca0d 40bc 8640 ea3b f7b2 06bb 310d 34bc
00000150: 99ea f436 c60b 6dbc e85b c03b 866e 02bb
00000160: 49e5 ea3b 280d d7bb 530f 6bbb c541 e5bb
00000170: 2ee0 363a a062 02bc b077 d7bb a0f2 8cbc
00000180: 53cc 82ba f3b6 783c 2a77 cbbb f0b5 a4bc
00000190: c9a4 c7ba 8248 7b3c 7b8b d0bb 9b3a 823c
000001a0: 449a 33bc 003f 7ebc 292b 4e3c 10c0 023b
000001b0: 264f 5e3c 8fcc 723c 8e03 abbc 7858 ee3b
000001c0: e86f 7a3a 5151 29bc c70d 3e3b 54f9 8d3c
000001d0: f57b 0fbc 9624 ff3b ecd9 9b3c 6f4b f8ba
000001e0: 68ef b8ba eb54 783c 541a 56bc 86fd 4d3b
000001f0: b0dc 0f3c eca7 1d3c 644c b03b a9e1 25ba
00000200: 6c28 ae3c 2f16 e139 7366 d139 c533 85bc
00000210: a180 3f3c 9400 183b 5564 383c 8124 3fbb
00000220: 87bc 5b3c 061d a53c 92b1 0d3c 8107 063c
00000230: d2e3 af3b 49e0 2bbc 6e7c 0bbc b9a7 d3bb
00000240: b711 2e3c fa93 b83a fb06 9dbc a058 cc3a
00000250: 532d 273c 4129 0f38 e72b 69bc 1bae 663c
00000260: 95f7 06bc 5e2e 72bc ff68 ae3c d286 9c3b
00000270: 1c0b 8ebc b1f6 993c b591 14bc c9a5 6fbc
00000280: 0681 993c 15c3 8d3c 97e7 073c 693e 2c3c
00000290: 6633 e6bb 9e57 fabb 4417 363c 9713 9ebc
000002a0: 278c 5a3c 137e 863c e280 80bc 75cf 393b
000002b0: f4ed b1bb e10d 0abc f07c 4e3b 9520 7cba
000002c0: a312 a13c 0a52 463c 4a51 b63c 3847 9fbc
000002d0: e769 93bc 8b8a 913c 2a58 05bc 4c27 9bbc
000002e0: a5b8 55bc 8b24 883c 335a b6bb ca7d 1b3c
000002f0: 2cba 653c 786f 9bbb bfff a53b 5341 2ebb
00000300: 63d7 b3bb 6dd8 903b d181 9f3b b133 033c
00000310: 18b4 15bc 8758 65bb 2ebf 273a dce0 6aba
00000320: 81ef 793c 9311 7abc a237 af3c d6de 83bc
00000330: 68af 14bc f0e1 203c 929d daba 3dd8 a5bc
00000340: 4234 66bc fd09 02bc 283f 5cbc bc98 a3bb
00000350: 92b8 3fbc 64af 69ba f7b8 f738 e5bd ef3b
00000360: b413 883b 32dc 37bb a092 6b39 5e95 46bc
00000370: 6b81 433c 847c 423b 6e67 f5bb 2179 34bb
00000380: 26cd 6e3b 1079 b93b a295 593c 6e46 63bc
00000390: b651 f23b a1d1 903c 2812 d43b e768 8cbb
000003a0: 14af a43b 6eaa 7cbb 5eea 903b c86b 823c
000003b0: d8a0 a8bb 2ca5 1fbc 53be f63a 55ed 3dbc
000003c0: e999 573c 0a07 c03a 245f 323c 41ef f53b
000003d0: 6ef6 77bb 9c48 15bc 28e3 08bc 99a2 12bc
000003e0: 81b8 a23b 3c2d 4dbc b1bf 8a3c 63f0 1a3c
000003f0: 37de 99bc 419b 66bb ecea 8dbc 4c86 beb9
