results/raw_openmiir_e2e_simpleconv_ep100/mlp_fold_6_weights.npy (npy, 844400 bytes, 1 tensors)

array f4 [5, 3518, 12]
-0.047927998 0.015401062 0.02002841 -0.04025872 0.017849881 0.021021515 0.029176772 -0.0225776
0.0022446136 -0.010450155 0.02032014 -0.016849075 -0.05741891 0.018574852 0.004711875 -0.05045812
0.025591014 0.036947638 0.046307947 -0.026374774 0.007765615 -0.0057374705 0.008885661 -0.02651353
-0.044612978 0.01102034 0.002183064 -0.038782768 0.0032585876 0.045269385 0.04043765 -0.004277097
0.0021328267 -0.017365541 -0.012632617 -0.01656159 -0.05079691 0.03146514 -0.023624092 -0.03389943
0.034471974 0.03019484 0.04314167 -0.0036900498 0.0045938524 -0.006758675 -0.007965157 0.005116121
-0.035581417 0.017003024 -0.033906527 -0.049519565 0.02638294 0.04332163 0.03460531 0.0026167312
0.015966646 -0.0054123923 -0.027418545 -0.013388816 -0.05584637 0.031983893 -0.015878875 -0.029384967
0.038615473 0.021400278 0.04469625 -0.026000287 0.013904417 -0.010028313 -0.025822688 -0.021115802
-0.040008537 0.0049501914 -0.050302297 -0.024072912 0.036796305 0.026045915 0.056965463 -0.026066309
0.023579601 -0.0076590665 -0.023290627 -0.027676668 -0.025654007 0.0043737143 -0.039379567 -0.025756165
0.018764894 -0.0011615073 0.045634862 -0.013123774 0.030446807 -0.002195916 -0.024516748 -0.0052041663
-0.010739507 0.030907346 -0.046045735 -0.033816285 0.032899845 0.0101793 0.05215205 -0.017262097
0.034888044 0.010849999 -0.027385285 -0.035768732 -0.03244646 0.015652748 -0.0639535 -0.052729286
0.03236117 -0.016780829 0.02757985 -0.013045941 0.058936555 -0.0009420381 -0.011617152 -0.027137857
0.002309803 0.035215765 -0.058841698 -0.058502547 0.020286823 -0.016079457 0.02992956 -0.019864531
0.050322045 0.024979167 0.0062442324 -0.042595055 -0.014579875 0.030225798 -0.053957533 -0.038284045
0.031890556 -0.01651306 0.047977794 -0.032363042 0.07664561 0.025917722 -0.015343804 -0.034760967
0.0017359369 0.01680917 -0.053439893 -0.049387682 0.031343974 -0.03225372 0.019292021 -0.02864577
0.059913617 0.033695936 -0.0018851534 -0.032848425 0.0102428645 0.029701287 -0.045651328 -0.045882072
0.03657274 -0.044655383 0.02609309 -0.02137617 0.058880534 0.016138954 -0.003969665 -0.038737174
0.030760128 0.01801494 -0.027143648 -0.030854853 0.0335749 -0.05738252 0.03069959 -0.04495704
0.061322533 0.03320526 0.016576888 -0.050668895 0.009658017 -0.004152473 -0.027177906 -0.06579988
-0.0001554579 -0.05475016 0.019000506 -0.046000343 0.08769256 0.04174643 0.025582733 -0.037256915
0.03670133 -0.0027303805 -0.01105398 -0.045762785 0.022638641 -0.03877211 0.01673037 -0.040787537
0.0880931 0.030551272 0.02834763 -0.020529173 0.013209268 -0.009624756 -0.026205732 -0.067075565
0.016687531 -0.025498169 0.024693744 -0.028692212 0.07618294 0.021835564 0.032783855 -0.016778074
0.026626427 -0.0226764 -0.015731208 -0.049674764 -0.007714822 -0.041780386 0.028286705 -0.030335851
0.073009335 0.033854455 0.03893653 -0.018553965 0.0031781308 -0.00086138886 0.004769717 -0.058339957
-0.010849006 -0.0037719305 0.025824597 -0.017055096 0.04285575 0.0033004668 0.041175522 0.012181173
0.004391051 -0.0072537553 0.0069729723 -0.056954965 -0.012869483 -0.014596539 -0.00029293576 -0.011808436
0.040822044 0.00037277868 0.058044165 0.0130698765 -0.010963482 -0.02829514 0.022408744 -0.056967124
00000000: 2650 44bd bc54 7c3c 9f12 a43c 54e6 24bd
00000010: ea39 923c 5035 ac3c 2004 ef3c a9f4 b8bc
00000020: 5e1a 133b 2037 2bbc 6c76 a63c 1207 8abc
00000030: 1730 6bbd 4a2a 983c 1366 9a3b 2cad 4ebd
00000040: 3fa4 d13c 6856 173d 67ad 3d3d e90f d8bc
00000050: b376 fe3b 6401 bcbb 2a95 113c e732 d9bc
00000060: 19bc 36bd a88e 343c bc11 0f3b aeda 1ebd
00000070: 078e 553b 646c 393d f3a1 253d e426 8cbb
00000080: e5c6 0b3b 2e42 8ebc 09f9 4ebc 2cac 87bc
00000090: 6c10 50bd 97e1 003d 5087 c1bc 21da 0abd
000000a0: 7c32 0d3d 2b5b f73c 52b5 303d c3d4 71bb
000000b0: 0788 963b e077 ddbb 4a80 02bc 22a5 a73b
000000c0: d2bd 11bd ed49 8b3c 92e1 0abd 07d5 4abd
000000d0: 0921 d83c 0672 313d 4cbe 0d3d 777d 2b3b
000000e0: 7ccc 823c 705a b1bb db9c e0bc c45c 5bbc
000000f0: 2abf 64bd 8b01 033d 6a14 82bc beb8 f0bc
00000100: 422b 1e3d a34f af3c 6a13 373d 8efe d4bc
00000110: 5acf 633c cb4d 24bc 1a8a d3bc 0cfb acbc
00000120: fedf 23bd 3735 a23b c809 4ebd 8e34 c5bc
00000130: b9b7 163d 3e5e d53c 9e54 693d 0389 d5bc
00000140: 022a c13c e8f8 fabb fccb bebc 2eba e2bc
00000150: 5a28 d2bc 6051 8f3b 784c 21bd 98fe d2bc
00000160: d6b8 993c b83d 98ba 9feb 3a3d 1905 57bc
00000170: 956b f93c 5be9 0fbb 59d7 c8bc b687 aabb
00000180: c2f4 2fbc 6731 fd3c 749a 3cbd f282 0abd
00000190: fdc1 063d 14c7 263c 639d 553d 3e69 8dbc
000001a0: c4e6 0e3d 32c4 313c 1b57 e0bc 3c82 12bd
000001b0: 94e6 04bd 313a 803c 0dfa 82bd aafa 57bd
000001c0: 258d 043d f377 89bc 23ef e13c a4be 55bc
000001d0: 7567 713d 1bf3 76ba de55 3ebc 3650 debc
000001e0: 1060 173b 683e 103d fe03 71bd 5ea0 6fbd
000001f0: 8d30 a63c 11b9 83bc d62e f53c f1ba a2bc
00000200: 7d1e 4e3d 1ca1 cc3c 6b9c cc3b 2778 2ebd
00000210: 6ee0 6ebc 189c f73c 9302 5dbd bbcf 1cbd
00000220: ac9f 023d 6646 87bc 5d84 443d 1c8f 04bd
00000230: 60f8 9c3d 6751 d43c 9464 7bbc 8461 0ebd
00000240: 6088 e33a 62b3 893c cae3 5abd bd4a 4abd
00000250: 8a62 003d 7a1c 04bd 4d0a 9e3c 89aa eabc
00000260: fb67 753d c004 0a3d 4017 f7ba 128c 06bd
00000270: b0d1 273c 1d50 f33c e3fc 3abd d7ee 3bbd
00000280: 4ccd 153d 90e8 36bd 2dc1 d53c 141d afbc
00000290: b72c 713d d735 843c f713 82bb dfaa 1ebd
000002a0: aafc fb3c 1194 933c 5b5c debc 51c3 fcbc
000002b0: d685 093d ef09 6bbd b57d fb3c e024 38bd
000002c0: 562d 7b3d 3d02 083d 41cc 873c 308a 4fbd
000002d0: a93c 1e3c 7811 88bb 33a4 debc 16c2 86bd
000002e0: 6a02 23b9 b441 60bd f3a6 9b3c db6a 3cbd
000002f0: 2898 b33d 4efe 2a3d e192 d13c b59a 18bd
00000300: 2254 163d 2ff0 32bb c11b 35bc c271 3bbd
00000310: ac74 b93c 81cf 1ebd 210e 893c d510 27bd
00000320: 286a b43d a946 fa3c 4a39 e83c cc2c a8bc
00000330: b06b 583c 27b1 1dbc 67ad d6bc ea5e 89bd
00000340: 4ab4 883c 89e1 d0bc 894a ca3c ee0b ebbc
00000350: cd05 9c3d 7fe0 b23c 5d48 063d 2c72 89bc
00000360: aa1f da3c dcc3 b9bc bcde 80bc c477 4bbd
00000370: 9ecc fcbb e921 2bbd 85b9 e73c e482 f8bc
00000380: eb85 953d f8aa 0a3d e97b 1f3d 7cfe 97bc
00000390: 3048 503b d4ce 61ba 494b 9c3b e1f5 6ebd
000003a0: 07c0 31bc 7e32 77bb 1b8e d33c 21b7 8bbc
000003b0: 8389 2f3d a54c 583b aaa7 283d 8b93 473c
000003c0: cee2 8f3b e9b0 edbb 887d e43b 9c49 69bd
000003d0: 86da 52bc 5226 6fbc 2c95 99b9 2c78 41bc
000003e0: 0435 273d 8271 c339 b8bf 6d3d 0923 563c
000003f0: 2da0 33bc 36cb e7bc 8b92 b73c 5c56 69bd
