results/raw_openmiir_e2e_simpleconv_ep100/mlp_fold_7_weights.npy (npy, 844400 bytes, 1 tensors)

array f4 [5, 3518, 12]
000000 03 10 2c bc c0 89 08 bc e3 a0 df bc 45 1f 31 3d
       -0.010501864 -0.008333623 -0.027298396 0.04324271
000010 33 73 3f 3b 3c 2f 5c bd 67 03 5e bd ac 10 3b 3b
       0.0029212951 -0.053755984 -0.054202463 0.0028543873
000020 43 ac f9 bc 14 8a a5 3c fb 6d fe b9 77 e5 15 3d
       -0.030477649 0.020207442 -0.00048528597 0.036595788
000030 da b9 94 bc ca eb 34 bc 22 45 b6 bc 25 e7 29 3d
       -0.018155027 -0.011042545 -0.022249762 0.041480202
000040 96 3b 92 3b 97 32 14 bd 7f d1 65 bd b3 fe dc 3c
       0.0044626696 -0.03618106 -0.056107994 0.026976919
000050 6e 77 ca bc 97 0d 18 3d 8d 1b c9 3a a7 bb 0a 3d
       -0.024715152 0.037122335 0.0015343294 0.033870365
000060 23 a9 ce bc eb 88 3d bc c7 97 90 bc bd 7c 4c 3d
       -0.025227135 -0.011568288 -0.017650498 0.049923647
000070 fe 95 9c 3c d4 b9 04 bd 9e 1f 8c bd 0a 80 ac bb
       0.01911449 -0.032403782 -0.06841968 -0.005264287
000080 4f c9 ea bc bf 3f 4f 3d 47 22 6d bc 5e 76 37 3d
       -0.028660445 0.050597902 -0.014473504 0.044790618
000090 ee 10 d3 3a 29 1d f7 bb 9b 4f 5f 3c a3 6b 20 3d
       0.0016103068 -0.007541318 0.013629819 0.03916515
0000a0 da 38 49 bb 6b a0 47 bd 8d 36 2f bd c4 51 2f 3c
       -0.0030704052 -0.04873697 -0.042776633 0.010700647
0000b0 f8 1c a6 bc 22 b0 01 3d 89 df 57 3c ec 1d 11 3d
       -0.020277485 0.031662114 0.0131758535 0.035428926
0000c0 60 fa 42 3c cf 18 15 bc 27 02 c5 bb 46 75 5c 3d
       0.011900514 -0.009100153 -0.0060122195 0.05382278
0000d0 47 49 8a 3b c6 b4 f0 bc 73 cf 85 bd 45 6c 53 3c
       0.004220161 -0.029383074 -0.065337084 0.012904231
0000e0 ac 07 b7 bc fc 31 ff 3c 08 6d 87 bc 64 12 6b 3d
       -0.022342525 0.031151764 -0.016531482 0.057390586
0000f0 70 89 a5 bc ce 0f f8 bb 5e d3 97 3c 56 4a 38 3d
       -0.020207137 -0.0075702434 0.018533405 0.044992767
000100 41 cb fb bb bd e5 24 bd 31 9d 8b bd 38 2f c6 3b
       -0.007684142 -0.040258158 -0.06817091 0.0060481094
000110 1d 4d 87 bc b4 f6 c5 3c 7a 4c 55 3b 5a ac 21 3d
       -0.016516263 0.024165489 0.0032546804 0.039471008
000120 9e 23 79 bb ca 16 4c bb f8 46 34 3d d5 b2 6a 3d
       -0.0038015614 -0.0031141513 0.044012994 0.057299454
000130 5b ab 9a ba d2 ab 57 bc a6 d0 27 bd c2 08 a0 bc
       -0.0011800335 -0.013163524 -0.040970467 -0.019535426
000140 10 af 2e bd 21 98 a1 3b cb df 44 3c 7a 0b 80 3d
       -0.04264742 0.0049314653 0.012016247 0.06252189
000150 4e ca b3 3b 82 b3 7a bb 9d 1f 3b 3d 50 fb 68 3d
       0.005486763 -0.0038253968 0.045684446 0.056880295
000160 95 31 e2 bc a5 3c 3e bc 9a a4 c8 bc 21 5d 5f bc
       -0.027611533 -0.0116111385 -0.02449255 -0.0136330435
000170 9f 70 e5 bc 16 b7 c1 3c 5a a7 89 bb b8 72 4c 3d
       -0.028007803 0.023646872 -0.004200858 0.04991409
000180 0b 8b d7 bc 6b a9 ba ba cf f1 3c 3d 61 3b 29 3d
       -0.026311418 -0.0014241164 0.046129044 0.041316394
000190 f8 30 01 bc 77 64 a1 3b d7 0c 07 bd e6 61 3a 3c
       -0.00788521 0.0049253064 -0.03297123 0.01137588
0001a0 91 90 45 bd ba 3b 0c 3b fe bd c8 39 31 9e 71 3d
       -0.048233572 0.0021397904 0.00038288528 0.058988754
0001b0 4a 07 2c bc 06 12 c7 bc e8 15 41 3d 38 08 24 3d
       -0.010499785 -0.024300586 0.047140032 0.0400469
0001c0 f3 54 d6 bc 64 42 8c bb 3b f8 09 bd ba 2e 84 3c
       -0.026163554 -0.0042803753 -0.033683997 0.016135562
0001d0 21 12 2c bd d3 23 19 bc 19 6f 22 3c 31 ce 00 3d
       -0.042009477 -0.00934692 0.009914183 0.03144664
0001e0 f2 84 02 bd 64 84 64 bc 13 b9 7f 3d 08 8b 25 3d
       -0.031865068 -0.01394758 0.06243236 0.040415794
0001f0 a8 c3 9b bc 6b 22 f2 3b 27 a0 e6 bc 21 1b 35 bb
       -0.019014195 0.007389357 -0.028152538 -0.0027634578
000200 e1 ec 66 bd 1b 98 b4 bc 37 4e 98 3c 3d 53 31 3d
       -0.05637825 -0.022045186 0.018591983 0.043292273
000210 2c c4 de bc 96 fa 05 bd 5c e4 6f 3d b0 3f 2e 3d
       -0.027193151 -0.03270968 0.05856739 0.042541206
000220 14 a9 13 bd 40 4b 99 3c 1f d9 29 bb b5 cc ac 3c
       -0.036049917 0.01871264 -0.0025916768 0.021093706
000230 aa 1a 98 bd a4 50 a7 bc e7 dd 94 ba 0d 0e 27 3d
       -0.07426961 -0.020424195 -0.0011357636 0.040784884
000240 d3 cb 36 bd ec 28 f7 bc a8 a7 34 3d be 62 05 3d
       -0.044627976 -0.03017088 0.044105202 0.03256487
000250 67 5e 99 bc ef 24 1c 3d 6a 2e 22 bc 0f 54 a7 3b
       -0.018721772 0.03812116 -0.009898761 0.005106456
000260 ea fe 9c bd bd 62 01 bd d7 10 d9 3c 47 fc 73 3c
       -0.076658085 -0.031588305 0.026497288 0.014891691
000270 c7 09 a7 bc 5a 5e 19 bd 09 0a 76 3d 2b 6e 34 3d
       -0.020390404 -0.037443496 0.060068164 0.044050377
000280 45 17 17 bc 96 1f d1 3c db e2 10 3b ec 2f 84 3c
       -0.0092218565 0.025527757 0.0022107873 0.016136132
000290 c5 85 a5 bd 57 dc 8a bc a5 f9 ce 3c 57 f1 e6 3c
       -0.08082155 -0.01695077 0.025265524 0.028191252
0002a0 67 77 26 bd 82 5b cf bb 78 0a 02 3d 3a 53 ed 3c
       -0.040641215 -0.0063280473 0.031748265 0.02897035
0002b0 28 2a d1 bc 6e b8 0b 3d 53 cd 09 3d d8 20 11 3d
       -0.025532797 0.034111433 0.033643078 0.035431713
0002c0 bc a6 80 bd a3 10 a9 bc ba 26 c8 3b bd 85 89 3c
       -0.06281802 -0.020637816 0.006108132 0.016787404
0002d0 cb 90 46 bd d2 98 14 bc 1d fe 2d 3d 86 6f 29 3d
       -0.04847793 -0.009069638 0.04247867 0.041366123
0002e0 1f a6 51 bc 81 7b 8f 3c 79 e7 94 3c 9f b3 e4 3c
       -0.012795954 0.017514946 0.018176781 0.027917681
0002f0 ae b1 af bd d4 b1 a8 bc 00 18 11 3c 59 82 b4 3c
       -0.085788116 -0.020592608 0.00885582 0.02203481
000300 db e6 4b bd 5a a9 e1 bc c5 2b 91 3b 55 b1 b2 3c
       -0.049780708 -0.027546573 0.0044302666 0.021813074
000310 f9 f0 b6 bc cc 96 19 3d c6 18 0a 3d 22 5e 45 3d
       -0.022331702 0.037497327 0.033715032 0.048185475
000320 e7 35 95 bd 0c e9 17 bd be 4c 01 3c d9 cf 24 bc
       -0.07285672 -0.037087485 0.007891832 -0.01005932
000330 6d de 94 bc fd 26 a8 bc ff 70 ba bb 0a 40 02 3d
       -0.018172467 -0.020526404 -0.0056897397 0.031799354
000340 cd da 39 3c 2c 5c 3b 3c 52 fc e7 3c 99 3a 83 3c
       0.01134367 0.01143555 0.028318558 0.016019152
000350 5c ad 83 bd 42 78 d2 ba dd f2 9e 3c 5a 9d 95 bc
       -0.0642955 -0.0016057568 0.019402916 -0.018263508
000360 f8 82 73 bc e2 eb 83 bc 1a f0 b9 3b 9c 60 51 3c
       -0.014862768 -0.016103689 0.0056743743 0.012779381
000370 20 a1 ac 3c 67 7b f7 3b a8 dc 66 3c f6 02 9b 3c
       0.021072924 0.0075525525 0.0140906945 0.01892231
000380 dc 59 55 bd e7 dd f6 bb 03 b9 6f 3c 5b 37 d4 bc
       -0.05208765 -0.007533777 0.014631513 -0.025905302
000390 50 9e 10 bd d7 33 c6 bc a1 b5 8a bc 41 ee 32 3c
       -0.03530723 -0.024194641 -0.01693231 0.010921062
0003a0 77 58 42 3c 0b 05 11 bc 3e f9 19 3d 09 48 08 3d
       0.011861912 -0.0088513 0.03759121 0.033271823
0003b0 f9 22 41 bd 13 e3 7c 3b c2 20 f3 3a b2 d6 32 bd
       -0.047152493 0.0038587495 0.0018549191 -0.04366178
0003c0 fa 18 f1 bc 27 6f b0 bb c7 23 03 bd a7 9f 25 3c
       -0.029430855 -0.005384344 -0.03201654 0.010108865
0003d0 2c 95 06 3c 21 fe d0 bc 24 c3 98 3c fc be 5d 3a
       0.008214276 -0.025511803 0.018647738 0.000845894
0003e0 76 93 d5 bc 16 11 9b bc ea c3 b6 3c 42 73 1e bd
       -0.026071291 -0.018929046 0.022310216 -0.038684137
0003f0 a2 1c 0c bd 6f 03 85 bc e3 5d f9 bc a8 19 fc 3c
       -0.034206994 -0.016236989 -0.030440276 0.030773953
