results/raw_openmiir_e2e_simpleconv_ep100/mlp_fold_8_weights.npy (npy, 844400 bytes, 1 tensors)

array f4 [5, 3518, 12]
00000000: d30b 493c 4abd 2abc b172 b2bc 1aea 5b3d
00000010: ffd3 143c 8c92 d33a 8c01 2dbc d333 12bc
00000020: f1bc 43bc d210 343d 07b9 bbbb 3184 393d
00000030: faa5 c7bb 13cf 9fbc dc48 fdbc c202 583d
00000040: fe1a 933c cd44 65ba 48c6 27bb 7592 13bc
00000050: 1ac4 f6ba a71d da3c 3526 9dbc a701 3d3d
00000060: 9bdc 0a3b 40cd 4ebc bcb1 0abb 0d26 643d
00000070: def5 e43b 7fc4 8cbc 6e0a 22bc d510 1cbc
00000080: ba6f cebc 6353 063d 90d6 2bbc d922 c53c
00000090: 40ae 4dbc e6ef b7bc d437 4cbc 1676 1d3d
000000a0: fe07 dd3b 7053 313a 8cd5 c7bc 60d4 c13b
000000b0: 719c cbbc 7dbc d83c 572a 06bd f093 bc3c
000000c0: 9096 66bc 2228 b6bb 75f0 c53b 3648 573d
000000d0: d312 0abc cd61 183b 1916 26bc 8b79 83bc
000000e0: 4533 acbc f49c 123d c0a1 e7bc 4673 323d
000000f0: 55f5 c3bc 06e3 d4bb 4ae9 493c c99a 923d
00000100: 7f6a 363c 216e b1b9 71ab 92bc c7bb 163b
00000110: 5ab4 2fbd 34ed 413c ec93 b6bc 4315 433c
00000120: fc8a 08bb ecf8 9dbc 93bb bf3c bc2a 853d
00000130: 8338 73bc 622b 68bc 6971 01bb 938f 0f3c
00000140: d065 27bd a98d 453c 0545 04bd 765e 973c
00000150: aba9 913b cafe 7cbc b322 013d 272b 913d
00000160: 929f 8dbc 97a4 c93c 301d d2bc 58c5 20bc
00000170: 4f3d ebbc 618e b63c 4d97 cebc 9d5b 043c
00000180: f5a7 743b 05a8 d5bc b6ed 2c3d b594 593d
00000190: b906 35bc 47b4 043c 0be2 3cba f454 09bc
000001a0: e32b 4ebd 505a cf3c 7eae 25bc 451a 553c
000001b0: 2222 c5bb 5752 ccbc eaba e23c 1ce4 1f3d
000001c0: 08c1 bf3b 6c78 9b3b 50f8 85bc 3d6d 87bc
000001d0: 53ee 72bd 41cc 083c a521 d5bb 34d4 9e3c
000001e0: 5466 9dbb 57f0 39bd 9559 153d c786 683d
000001f0: 6232 2fbc bd6a 1c3c b68a 8fbb 0a73 ce3c
00000200: d94f 4abd a9f2 f23c c900 cfbb 348f 95bc
00000210: ebe2 d8bb 7998 b1bc 1188 463c 5f20 813d
00000220: c50d 033c 7595 c03c 7f6a 84bc fb87 e03c
00000230: 8820 7ebd fde1 2f3c 388d 343c cce2 ffbc
00000240: cc6e 3eba 6471 8dbc 07b5 953c a3b5 ec3c
00000250: 8a8f 74ba efc2 243d 32d2 8cbb 8b74 c13c
00000260: 6483 71bd fbff bf3c c4a2 fdbb 2dd5 0dbc
00000270: fbe7 253c 82ea 95bc 24c6 023d b8a0 3f3d
00000280: 8f96 6cbc 97da 013d 2375 203c 0081 113d
00000290: 25b0 1bbd fb00 b3bb b142 8cbb 8fd4 c0bc
000002a0: 5c1a 07bc e96c 21bd b768 a43c ac55 4b3d
000002b0: a628 95bc b429 543d e05b 3dbc 697b 2e3d
000002c0: 347f 51bd 0581 453c f5a4 81bb b016 85bc
000002d0: 7924 523c de08 21bd 2aeb 3bbc 1d4f 053d
000002e0: 9cda 7c3b 0f4f 183d 8f30 813b e122 cb3c
000002f0: 602a 69bd 6298 87bc 6db2 2dbb 3a7a 33bd
00000300: 096a 323c 3afe febb afd1 9ebb 4c40 283d
00000310: 247e df3a f684 693d 8ea7 263c b8fb 173d
00000320: f1ce debc cad9 96ba 32c3 bbbc 1e4a 89bc
00000330: fccc 243c f662 16bb 4891 4fbc ef49 273d
00000340: 2217 583c e3e2 b23c 0c43 ea3b 19e1 f13c
00000350: acf9 c9bc 4bfa 4abb aa1c b9bc ef13 3dbd
00000360: 7e74 87bb a50d b6bc 4d80 04bc daae 083d
00000370: ac7d 6a3c c6f8 0e3d b488 1cbc 266c 1b3d
00000380: a884 4fbc 40dd bbbc 0341 edbb 33b0 cebc
00000390: dd4c fb3b 86b3 e7bb 1364 62bc bca5 263d
000003a0: e8df 893b 7f66 9c3c 10ff af3c 4a4f 503d
000003b0: 66b3 06bc 7712 0fbd 33ac 8238 193e 37bd
000003c0: ec0f a9ba 589c 23bc 5c8d 0ebc 5dca 473c
000003d0: 736c 7e3c 61d1 a53c 8090 353b f9ef 2d3d
000003e0: 5c49 f0bb 15cf 55bb 74d7 7ebc 149f 25bd
000003f0: 4788 ae3c f44c aa3b 22a0 8cbc f43e 2f3d
0.0122708855 -0.010421107 -0.021783205 0.053690054 0.009083747 0.0016141697 -0.010559451 -0.008923489
-0.011946903 0.043961354 -0.005728844 0.045292083 -0.006092784 -0.01950792 -0.030918531 0.052737005
0.017957207 -0.0008745909 -0.0025600363 -0.009007086 -0.0018826753 0.026625467 -0.019183258 0.046144154
0.002118862 -0.012622178 -0.0021163067 0.05570035 0.0069873175 -0.01718354 -0.009890182 -0.009525497
-0.02519976 0.032794368 -0.010488167 0.024064468 -0.0125537515 -0.02245326 -0.012464482 0.038442694
0.0067453375 0.00067644473 -0.02439382 0.0059152097 -0.02485487 0.026457066 -0.032755222 0.02301976
-0.014073983 -0.0055589834 0.0060406276 0.0525591 -0.00842734 0.0023251653 -0.010137104 -0.016049167
-0.021020541 0.035794213 -0.02827537 0.043566965 -0.023920694 -0.00649679 0.012323687 0.07158429
0.011133789 -0.00033842123 -0.017904015 0.0023000108 -0.042896606 0.011836339 -0.022287332 0.011906925
-0.0020834794 -0.019283734 0.023404872 0.065022916 -0.014845016 -0.0141704995 -0.0019751436 0.008762258
-0.04086858 0.0120577 -0.032292385 0.01847766 0.004445275 -0.015441606 0.031527232 0.07088309
-0.017288003 0.024614615 -0.025648683 -0.009812675 -0.028715758 0.022284688 -0.02521863 0.008078483
0.0037331556 -0.026081095 0.042218886 0.053120334 -0.011048966 0.008099622 -0.0007205314 -0.008382071
-0.050334822 0.025311619 -0.010112403 0.013006751 -0.006016032 -0.024941606 0.027677018 0.0390359
0.0058518685 0.00474458 -0.016353756 -0.016531581 -0.059309315 0.008349479 -0.006504255 0.019388296
-0.004803458 -0.04539522 0.036462385 0.05676916 -0.010693165 0.009546933 -0.0043805493 0.02520134
-0.049392555 0.029656725 -0.0063172323 -0.018256761 -0.0066188476 -0.02167915 0.012117402 0.063050024
0.007998888 0.023508767 -0.016164063 0.02740859 -0.062042743 0.010735032 0.011019997 -0.031236075
-0.0007264435 -0.017265983 0.018274797 0.028895205 -0.00093292503 0.040224966 -0.004297518 0.023615142
-0.058963194 0.02343749 -0.0077403504 -0.008656782 0.010126109 -0.018300299 0.031927243 0.046784133
-0.014440193 0.031702604 0.009793553 0.035523415 -0.03800978 -0.0054627634 -0.004280411 -0.023538856
-0.008246031 -0.039410505 0.020069463 0.04964225 -0.01820786 0.051797584 -0.011557549 0.04259816
-0.0511467 0.012054686 -0.003956432 -0.01624617 0.012826079 -0.039315097 -0.011469642 0.03254615
0.003858245 0.03718477 0.003942556 0.024796905 -0.056925178 -0.016552154 -0.0026504055 -0.043817736
0.010889539 -0.007781771 -0.0048467736 0.041076943 0.0017051143 0.057011567 0.010171784 0.037105292
-0.027198287 -0.0011508998 -0.022920225 -0.016758975 0.010058638 -0.002294717 -0.012668915 0.040841993
0.013189109 0.021836704 0.007149106 0.02952628 -0.024655186 -0.003097194 -0.022596676 -0.04616159
-0.00413376 -0.022223303 -0.00808723 0.033369876 0.014312189 0.034905218 -0.009554077 0.037944935
-0.012665905 -0.022932649 -0.007240416 -0.025230503 0.007669075 -0.0070709614 -0.013817805 0.0406854
0.0042076 0.019091843 0.021483928 0.050856866 -0.008221483 -0.03492972 6.230958e-05 -0.044736955
-0.0012898422 -0.009986006 -0.008700695 0.012194243 0.015528786 0.020241441 0.0027704537 0.042465184
-0.007332964 -0.0032624651 -0.015554298 -0.04043491 0.021305216 0.005197162 -0.017166201 0.042784646
