results/raw_openmiir_e2e_simpleconv_ep100/mlp_fold_1_weights.npy (npy, 844400 bytes, 1 tensors)

array f4 [5, 3518, 12]
0	0xbc4d427b	-0.012528057
1	0x3d2e2195	0.042512495
2	0xbca8f0a4	-0.020622559
3	0xbd20ecdb	-0.039288383
4	0xbc236fe5	-0.009975408
5	0x3d5a1305	0.053240795
6	0xbb1facd2	-0.0024364484
7	0xbc70eea7	-0.014705337
8	0x3d40b955	0.047051746
9	0xbcca71f8	-0.024712548
10	0xba42898f	-0.00074210105
11	0x3b06b1fc	0.0020552864
12	0xbcbc191a	-0.022961188
13	0x3cf09a93	0.029370582
14	0xbc420a0e	-0.011843218
15	0xbd2b3bc9	-0.041805062
16	0x3cbbed02	0.022940163
17	0x3d4017e6	0.04689779
18	0x3cdc65cf	0.026904015
19	0xbbcf5343	-0.0063270642
20	0x3cfd2b9e	0.030904587
21	0xbd48134a	-0.04884652
22	0x3b109b7f	0.002206534
23	0x3c19802c	0.009368937
24	0xbb134af6	-0.00224751
25	0x3cb5ad44	0.022177346
26	0xbc310e92	-0.0108066965
27	0xbcf141bb	-0.029450288
28	0x3c76ae58	0.015056215
29	0x3d6f746e	0.058460645
30	0x3cb7b4b0	0.022425026
31	0xbc999ab2	-0.018750522
32	0x3d3262e5	0.043551344
33	0xbd3bdfb0	-0.045867622
34	0xbc131e41	-0.008979381
35	0xbc142fc9	-0.009044596
36	0xbc288784	-0.010286216
37	0x3cacb75b	0.021083524
38	0xbc49504b	-0.01228721
39	0xbd241759	-0.04006133
40	0x3c8837c0	0.016628146
41	0x3d20b5d7	0.039235916
42	0x3cbbb36d	0.022912705
43	0xbc6f3104	-0.014599089
44	0x3d476042	0.048675783
45	0xbd096123	-0.033539902
46	0xba80cfe4	-0.0009827581
47	0xbc605b70	-0.013693675
48	0xbc907d3b	-0.01763784
49	0x3d0ddc07	0.034633663
50	0xbcc42b75	-0.023946503
51	0xbd18fb09	-0.03734878
52	0xbb14de23	-0.0022715412
53	0x3d0f2b80	0.034953594
54	0x3cdf53d5	0.027261654
55	0x3baac32a	0.0052112537
56	0x3d2f9b41	0.04287267
57	0xbd1eaa3b	-0.038736563
58	0xbcb01966	-0.021496486
59	0x3af02c63	0.0018323775
60	0xbc6ef9b2	-0.014585899
61	0x3c9c2bac	0.019063793
62	0xbd07ea5c	-0.033182487
63	0xbd3c705d	-0.046005595
64	0x3bcdac63	0.0062766536
65	0x3d2bc9a8	0.04194036
66	0x3d40bfad	0.047057796
67	0x3b8d7a00	0.004317522
68	0x3d23bcb2	0.039974876
69	0xbce5e534	-0.028063394
70	0xbb813274	-0.003942782
71	0xbc028822	-0.007967027
72	0xbccc5bb8	-0.024946079
73	0x3cc7fd66	0.024412822
74	0xbd527c88	-0.051388294
75	0xbc8d1c13	-0.0172253
76	0x3c2c3ac6	0.01051206
77	0x3cc7defd	0.024398321
78	0x3cc6bde4	0.024260469
79	0xbc301997	-0.010748289
80	0x3d2e4c6d	0.042553354
81	0xbd0c9e99	-0.034330938
82	0xbc9c474a	-0.019076962
83	0x3b9140bb	0.0044327653
84	0xb8feddc8	-0.00012152974
85	0x3d2164b9	0.039402697
86	0xbd43f363	-0.047839534
87	0xbcb488e1	-0.022037925
88	0x3cf49246	0.029854905
89	0x3cc48e9f	0.023993788
90	0x3d08afb2	0.03337068
91	0xbb858b49	-0.004075442
92	0x3d376b89	0.044780288
93	0xbd0ce5f6	-0.034398995
94	0x3aa5ecb7	0.0012659047
95	0xbbe00009	-0.0068359417
96	0xbca826c0	-0.02052629
97	0x3c7e82b5	0.015534093
98	0xbd60b940	-0.05486417
99	0xbd275cac	-0.040859863
100	0x3cf598ac	0.029980026
101	0x3cb1db95	0.02171115
102	0x3cd4d3df	0.025979934
103	0xbca79c22	-0.020460192
104	0x3d39902e	0.045303516
105	0xbce4f42d	-0.027948463
106	0xbcd1af6d	-0.025596345
107	0x3c8d3c55	0.017240683
108	0xbcb533d7	-0.022119446
109	0x3d44b285	0.048021812
110	0xbd107bd6	-0.03527435
111	0xbd1ce610	-0.038305342
112	0x38dd2434	0.000105448446
113	0x3be74787	0.0070580873
114	0x3d5e0dc0	0.05421233
115	0x3be860aa	0.0070916014
116	0x3d6fd81d	0.05855571
117	0xbcf7015f	-0.030152021
118	0xbca9d345	-0.020730624
119	0xbba48bd3	-0.005021551
120	0xbcb4a008	-0.022048965
121	0x3d04d5be	0.032430403
122	0xbd0f2a01	-0.034952167
123	0xbd0ba193	-0.034089636
124	0x3ca620bf	0.020279286
125	0x3b62036c	0.0034486903
126	0x3d03e843	0.032203924
127	0x3bc58f55	0.0060290494
128	0x3d2e966a	0.042623915
129	0xbcfa4909	-0.030552404
130	0x3af0309f	0.0018325037
131	0x3b7d9470	0.0038693212
132	0xbb5b2a48	-0.003344195
133	0x3d42416a	0.047425665
134	0xbcaafaa2	-0.020871464
135	0xbd7cfce7	-0.061764624
136	0x3c4669a0	0.012110144
137	0xbb37b5fd	-0.0028032057
138	0x3d2b74be	0.04185938
139	0x3b250d45	0.0025184911
140	0x3d894c69	0.06704027
141	0x3a2283a0	0.0006199423
142	0x3c513a8e	0.012770308
143	0x3c4143cd	0.01179595
144	0xbc81e4ba	-0.015856136
145	0x3d34eb81	0.044169907
146	0xbcbc10b5	-0.022957185
147	0xbd84699c	-0.06465456
148	0x3c568b8b	0.013094793
149	0xbce4fc37	-0.027952297
150	0x3cc9860b	0.02460005
151	0xbba868cc	-0.005139446
152	0x3d8810a4	0.06643799
153	0x3b131a68	0.002244616
154	0x3cc09ead	0.023513163
155	0x3c9d6e4f	0.019217638
156	0xbc59e2a4	-0.013298664
157	0x3d4c9b1b	0.049952608
158	0xbcae71de	-0.02129453
159	0xbd8bfc18	-0.068351924
160	0x3bbde415	0.0057950118
161	0xbd264810	-0.040596068
162	0x3d5d4c2f	0.054027732
163	0xb9fc7f7e	-0.00048160175
164	0x3d70a44b	0.058750432
165	0x3c10049c	0.008790161
166	0x3cc42f03	0.023948198
167	0xbc3972a7	-0.011318839
168	0x3ca0fffa	0.01965331
169	0x3c3b75d8	0.01144167
170	0xbc443471	-0.011975394
171	0xbd6e5de8	-0.058195025
172	0xbc760105	-0.0150148915
173	0xbd1ce076	-0.0383
174	0x3cd2d08f	0.025734214
175	0xbce8b2ef	-0.028405635
176	0x3d5090b5	0.050919253
177	0xbb1b54dd	-0.0023701706
178	0x3d2c0d9e	0.042005174
179	0x3b073864	0.0020632977
180	0x3a78698e	0.0009476178
181	0x3cc70d8c	0.024298452
182	0x3b0409fb	0.002014755
183	0xbd4c6bb9	-0.04990742
184	0xbd0d082c	-0.03443162
185	0xbd0033c6	-0.031299375
186	0x3d4cffcb	0.05004863
187	0xbc333a28	-0.0109391585
188	0x3d980f46	0.07424788
189	0x3bd6e123	0.0065576
190	0x3cbecb5e	0.023290332
191	0xbb6c7cbe	-0.0036085094
192	0xbc08eba9	-0.008356967
193	0x3b66c4f5	0.003521261
194	0xbc89e8d5	-0.016834656
195	0xbd692d4d	-0.056927968
196	0xbd05f042	-0.03269983
197	0xbc343436	-0.010998776
198	0x3ca55620	0.02018267
199	0xbc2f1e2d	-0.010688347
200	0x3d4d2987	0.05008843
201	0x3c702868	0.014658071
202	0x3d07fdd1	0.033201043
203	0xbc1e02d1	-0.009644226
204	0x3ba24121	0.0049516116
205	0x3ca49db8	0.020094737
206	0xbaecb8d4	-0.0018060454
207	0xbd8025a3	-0.06257179
208	0xbcae4a96	-0.0212758
209	0xbcac8a76	-0.021062117
210	0x3cea5817	0.028606458
211	0xbc724810	-0.014787689
212	0x3d67f6cd	0.056631852
213	0x3c6f3627	0.014600313
214	0x3d314dba	0.043287016
215	0x3c3ca9b0	0.011515066
216	0x3b4d8f3d	0.0031365894
217	0x3b5f9c3e	0.0034120227
218	0x3bb55501	0.005533815
219	0xbd2a736a	-0.041613974
220	0xbc4f1085	-0.012638216
221	0xbd00a13c	-0.031403765
222	0x3d291ed9	0.041289184
223	0xbbf00ef0	-0.0073259994
224	0x3d4a7e69	0.04943696
225	0x3c53ddc5	0.012931292
226	0x3d55c941	0.052193884
227	0x3c0d065a	0.008607471
228	0x3bf06268	0.0073359497
229	0xba0c433d	-0.00053505955
230	0xbb31cc01	-0.0027129652
231	0xbd20a928	-0.03922382
232	0xbcc0a4a4	-0.023516007
233	0xbd11cea9	-0.035597477
234	0x3cb39dc7	0.02192582
235	0xbaccd3c8	-0.001562708
236	0x3d53d6eb	0.051718634
237	0xbb8b2f90	-0.0042476133
238	0x3c997cd9	0.01873629
239	0xbbdfe676	-0.006832893
240	0x3c5ff5e4	0.013669465
241	0xbb29f37c	-0.0025932482
242	0x3c4aa2ba	0.012367899
243	0xbcd208a1	-0.02563888
244	0xbd06088b	-0.03272299
245	0xbca62620	-0.020281851
246	0x3c7af2f3	0.015316713
247	0xbb1729aa	-0.0023065605
248	0x3d4a3583	0.04936744
249	0xbb509cfa	-0.0031831847
250	0x3c64ffb7	0.013976983
251	0x3b21e9f9	0.002470611
252	0xbab8a3aa	-0.0014086862
253	0xbc509823	-0.012731585
254	0x3c971848	0.018444195
255	0xbd3cec60	-0.046123862
