results/raw_openmiir_e2e_simpleconv_ep100/mlp_fold_0_weights.npy (npy, 844400 bytes, 1 tensors)

array f4 [5, 3518, 12]
00000000: 0e3a 37bc d616 87bc 97c4 ff3b 0c14 4d3d
00000010: 7154 7ebb 2a30 89bd cba5 95bd cdfc 363d
00000020: 6ba0 e9bc 9bec 723d e398 31bb 2cdd 453c
00000030: cca7 9cbc e702 89bc 7c02 9abc 2bf2 863d
00000040: 8d90 40bc 163e 46bd da0e acbd 7749 433d
00000050: 5dc5 e2bc a974 193d fae0 e13b 55d3 073d
00000060: 1b4f 85bc 05c1 2cbc b495 e4bb b86c 863d
00000070: 7399 d5bc 4e99 41bd c050 9abd c25b 553c
00000080: 5c95 24bd ddf1 683d b474 26ba deaf 2e3d
00000090: a07e 1c3b cf1d efbc 9515 bebb fc90 8b3d
000000a0: 2277 1fbd c253 57bd f994 80bd f219 d23b
000000b0: 169b b4bc caaf 193d f496 92bc 84b7 d73c
000000c0: 4c57 043c 34d7 4abb 7ce4 ba3b ccde 6d3d
000000d0: a5fc 4abd 91e6 1bbd 2b9f 69bd 30af e43c
000000e0: 2421 b4bc 5fd1 283d 8c31 f8bb 6578 833c
000000f0: 8084 31bc 5c86 d1bc 4eaa 083d f32a a63d
00000100: 2cdd 3fbd e76d aaba 32da 98bd e80e ccbb
00000110: c065 dabc dcfa 283d d65b 1c3b 79b2 413c
00000120: 9a4e 7fbc 3314 d63a ee97 2e3d 3b78 753d
00000130: 993e 5dbd 6f17 e4bb 3646 50bd 55d7 3fb9
00000140: 8d26 1dbd 99bb 563d 5a9b 49bb 9c7e 033d
00000150: 6bc7 a7bc 02d1 15b8 59da 833c 95c9 a03d
00000160: 9cc0 4abd bf6f 64bc 5a74 8bbd fd86 7f3c
00000170: b80b c5bc fa1f c93c f874 a1bc 7a1b 333d
00000180: 3f59 d1bc 2674 75bc c981 ac3c 432f 833d
00000190: f08e 4dbd b614 353c 2b1f 76bd d0d0 7f3c
000001a0: 6038 c2bc 1d83 813c 65e6 483c d562 533c
000001b0: def6 b8bc b263 04bd 120d dd3c 3c52 643d
000001c0: ca12 36bd 367d 9f3c adc9 49bd b4cd 5d3c
000001d0: 0150 13bd 4e95 abba 318c 81bb e259 c63c
000001e0: 24c4 8ebc ea62 03bd 8302 373d 11fb 883d
000001f0: 2538 54bd 2854 013d 7ef1 69bd 53c2 b63c
00000200: 7807 3dbd 05c1 e3ba b65f 30bc 41c7 b03c
00000210: 4de7 c73a f5b0 dfbc 510a f73c defa a33d
00000220: b353 67bd 4115 883c 5297 1ebd 3763 263c
00000230: 9ee0 4dbd f200 d9bc 5dc9 8bbc 572f cb3c
00000240: 354b d8bc a952 0fbd 1d76 f13c b492 963d
00000250: cf43 08bd f2f6 233d b472 78bd 6e0b 953c
00000260: a529 3abd 6db5 dfbc 2497 6ebc 2221 e53b
00000270: f89c 43bc 2f90 bbbc 1e9a ed3c b88c 7e3d
00000280: 87cb 96bc 92a3 b33c 87a1 0cbd 76f5 d63c
00000290: 7619 06bd fadd 24bd bdaa 42bb 2c11 4d3c
000002a0: 1c26 d7bc 07ef eabc 3188 f83c 5f85 4f3d
000002b0: 0d71 acbc ce19 d13c 3770 49bd ffda f93c
000002c0: 4648 4ebd 5207 b2bc a952 e2bc 4137 5e3c
000002d0: ec4c a0bc dd1e 01bd 2b41 cc3c 0652 623d
000002e0: 391c ddbc dab6 073d 1208 f3bc f5d4 333d
000002f0: 3adb d4bc e72b f5bb 4348 edbb 21ed 24bc
00000300: e184 a5bc d470 07bc 5887 b5bb 3534 343d
00000310: aad4 c839 c547 823b 59bd 55bc e3e0 2c3d
00000320: 8e4e 0cbd 9b24 8abc 7804 16bd ad70 0d3c
00000330: d4ca 183c 35bf 6ebc 995c 2bbc 3dea 333d
00000340: 5d88 133c 43bc 32bc 2147 43bc 1183 143d
00000350: 42af 45bc c711 223c 48a1 8abc 54cc a3bc
00000360: 8c9b 3dbc e224 82bb 3aa5 5bbc 91a1 133d
00000370: d83d 823c 6524 d13b 6715 f2bc 4cce 833d
00000380: 03d3 f3bc 00e5 58bb f95b 48bd 2f9c e6bb
00000390: 1a6d 8b3b e7ad 993c c333 89bc 9986 613d
000003a0: 0ff6 343c eac3 1aba b6b1 67bc 0264 1a3d
000003b0: b0d3 41bb 93e7 253c 0d6d a4bc f61e 92bc
000003c0: 80e4 453c 34e4 853c f911 0bbc e02d 403d
000003d0: 22a3 9d3c 9550 be39 166c 113b 9cf8 0b3d
000003e0: 7f06 b63b e8ee f53c 75a1 2bbd 4534 febc
000003f0: 154d 2ebb bb60 703c b060 55bc 66a5 2b3d
-0.011183275 -0.016490381 0.0078054178 0.050067946 -0.0038807655 -0.0669864 -0.07307013 0.044674683
-0.028518876 0.059307676 -0.0027099184 0.012076657 -0.01912298 -0.016725017 -0.018800013 0.065891586
-0.011753214 -0.048399054 -0.0840127 0.047677483 -0.027682 0.03746477 0.0068932744 0.033160526
-0.016273072 -0.010544066 -0.006975854 0.06563705 -0.026074147 -0.047265343 -0.07534933 0.013022365
-0.040181503 0.056871284 -0.00063497876 0.04264819 0.0023879185 -0.029189019 -0.0058009126 0.06814763
-0.038931973 -0.052570112 -0.06278414 0.0064117843 -0.022046607 0.03752116 -0.017894246 0.026332624
0.008077454 -0.0030951025 0.005703507 0.058073804 -0.049557347 -0.038061682 -0.05703656 0.027915567
-0.021988459 0.041215297 -0.007574266 0.01604862 -0.010834813 -0.025576763 0.03336554 0.08113661
-0.046841785 -0.0013002724 -0.074634925 -0.006227363 -0.026659846 0.041254863 0.002385845 0.011822336
-0.015582705 0.0016332924 0.04262536 0.059929114 -0.054014776 -0.0069608013 -0.05084821 -0.00018295397
-0.038366843 0.052425 -0.0030762763 0.032103166 -0.020480832 -3.5719022e-05 0.016095327 0.07850949
-0.049500093 -0.013942658 -0.06809302 0.015596149 -0.02405344 0.02455138 -0.019709095 0.043727376
-0.025555251 -0.014981305 0.02105798 0.06405499 -0.050185144 0.011052301 -0.060088318 0.01561375
-0.023708522 0.01580959 0.012261962 0.012901981 -0.022578653 -0.03232164 0.026983771 0.055742487
-0.044451512 0.019468885 -0.0492646 0.013537813 -0.03596497 -0.0013090761 -0.0039534797 0.024212781
-0.017427512 -0.032076754 0.04468013 0.06688512 -0.051811356 0.0315744 -0.05711507 0.022309458
-0.0461497 -0.001737625 -0.010765007 0.021579387 0.0015251428 -0.02730606 0.030156286 0.080068335
-0.056476306 0.016611697 -0.03871853 0.010155491 -0.05026304 -0.026489709 -0.017063791 0.024802847
-0.026403049 -0.03499094 0.029475266 0.073522 -0.033267792 0.040030427 -0.060656264 0.018193927
-0.04544987 -0.02730819 -0.014562402 0.006992475 -0.01193928 -0.0228959 0.029004153 0.06214592
-0.018407596 0.021928582 -0.034333732 0.026240092 -0.032739125 -0.040250756 -0.0029703819 0.012516301
-0.02626329 -0.02867843 0.030338379 0.050664302 -0.02105 0.025525 -0.049179282 0.030499933
-0.050361894 -0.021732006 -0.027627306 0.013562978 -0.01956793 -0.031523574 0.024933418 0.055254005
-0.026990997 0.033133365 -0.029666934 0.043904264 -0.025983442 -0.00748204 -0.0072412803 -0.010066302
-0.020204963 -0.008266646 -0.005539816 0.0439951 0.0003830542 0.0039758408 -0.013045632 0.042206656
-0.034254603 -0.016863158 -0.036625355 0.008632821 0.009325702 -0.0145719545 -0.010459089 0.04392456
0.0090046795 -0.010909143 -0.011918814 0.036257807 -0.0120657105 0.009891934 -0.016922608 -0.019994892
-0.01157273 -0.003971682 -0.013406092 0.036042754 0.01589863 0.0063825124 -0.029551221 0.064358324
-0.029763704 -0.003309548 -0.048915837 -0.0070376615 0.0042549493 0.01875968 -0.016748315 0.055060003
0.011044993 -0.0005903827 -0.014141491 0.03769303 -0.0029575638 0.010126012 -0.02007153 -0.017837029
0.012078404 0.016344167 -0.008488172 0.04691875 0.019242827 0.00036299662 0.0022189668 0.03417264
0.0055549736 0.030021146 -0.041902024 -0.031030783 -0.0026596237 0.0146715 -0.01302354 0.041905783
